models/model10.pth (torch, 10760 bytes, 5 tensors)

weight f4 [40, 24]
0	0x22ed30a0	6.4290462e-18
1	0xa4c1c766	-8.40382e-17
2	0xa22a9b04	-2.312136e-18
3	0x2374e4dd	1.327573e-17
4	0xa0655586	-1.9425352e-19
5	0x226a15c2	3.1724432e-18
6	0x231489ed	8.052303e-18
7	0x214d1a8a	6.9491826e-19
8	0x20d10713	3.5410659e-19
9	0x254bdb76	1.76818e-16
10	0x22a7ae34	4.5449885e-18
11	0x21f539a8	1.6617107e-18
12	0x25a57b00	2.8706285e-16
13	0x231e9daf	8.598588e-18
14	0xa30afadc	-7.5341165e-18
15	0xa28e8346	-3.862817e-18
16	0xa71e0caf	-2.193378e-15
17	0xa0a13294	-2.730793e-19
18	0x223cc206	2.5581466e-18
19	0xa2b9c7c2	-5.0355852e-18
20	0x218ccae6	9.540476e-19
21	0x20ceda52	3.504223e-19
22	0x231ab72a	8.387143e-18
23	0xa2205ff3	-2.1734839e-18
24	0x3b94ac4b	0.0045371405
25	0xb91e70e7	-0.00015110114
26	0xb90ab686	-0.00013228701
27	0xbb369ff1	-0.0027866329
28	0xb999d64a	-0.00029342092
29	0xba1180df	-0.00055505143
30	0xb9d07c75	-0.0003976558
31	0xb91c9936	-0.00014934395
32	0xb8af0997	-8.3464365e-05
33	0xbad270f5	-0.0016055392
34	0xb9e66448	-0.00043943734
35	0xba20bb11	-0.00061313907
36	0x3a9131b9	0.001107744
37	0x39b127c9	0.00033789713
38	0x3ae58731	0.0017511604
39	0x3bc49a99	0.005999875
40	0x3b5ff240	0.0034171492
41	0x3a86fcd6	0.001029874
42	0xba3f6f99	-0.0007302701
43	0xba2c956a	-0.0006583544
44	0xb8a6abd4	-7.947502e-05
45	0x399c25f7	0.00029782925
46	0xba2b1d03	-0.00065274554
47	0xb97ee450	-0.0002430838
48	0x3df8a9dd	0.12141774
49	0x3df0e857	0.11763065
50	0x3a854a65	0.0010169266
51	0x3da1e7ee	0.07905565
52	0x3c2c2177	0.0105060255
53	0x3c82d4d3	0.015970623
54	0x3c2c34e9	0.010510662
55	0x3b82174d	0.003970063
56	0x3b282cbb	0.0025661427
57	0x3d3ee190	0.046601832
58	0x3cf5e474	0.030016162
59	0x3c6cc333	0.014450836
60	0xbd4660cc	-0.048432156
61	0xbbd49305	-0.0064872527
62	0xbd602989	-0.05472711
63	0xbe5646ff	-0.2092552
64	0xb9a5dd5e	-0.00031636184
65	0xbcf0f41d	-0.029413277
66	0x3cd28533	0.02569828
67	0x3cc592f9	0.024117934
68	0x3b3bc456	0.002865096
69	0xbc4c767a	-0.012479419
70	0x3c90bbfe	0.017667767
71	0x3b946488	0.004528586
72	0xbd038e6f	-0.032118257
73	0xbb15aed3	-0.00228398
74	0x3a0201ed	0.00049593934
75	0x3d16c5f6	0.036809884
76	0x3b47bba8	0.0030476842
77	0x3b994aa2	0.0046780864
78	0x3b446795	0.0029968966
79	0x3a9ac62b	0.0011808326
80	0x3a1cfe3a	0.00059888104
81	0xbd01dd26	-0.031705044
82	0x3ba9a0ac	0.0051766243
83	0x3bbd3ed6	0.005775313
84	0xbc59ba6c	-0.013289075
85	0xbb42a6c8	-0.002970146
86	0xbc9faf30	-0.019492716
87	0xbd91b406	-0.07114415
88	0x3ae1f797	0.0017239925
89	0xbc469d00	-0.012122393
90	0x3bf6d310	0.007532485
91	0x3bf0b927	0.0073462906
92	0x3a732fae	0.0009276819
93	0xbb89dcd6	-0.004207234
94	0x3c02d720	0.00798586
95	0x3af2e59a	0.0018531561
96	0xb827951f	-3.9954783e-05
97	0xb88607df	-6.391084e-05
98	0xb51a9055	-5.75795e-07
99	0xb63b5cd4	-2.7919205e-06
100	0x35a84a71	1.2538641e-06
101	0xb691e37d	-4.34782e-06
102	0x3689fded	4.112479e-06
103	0x3533120f	6.6708975e-07
104	0xb645d938	-2.9481726e-06
105	0xb90194f7	-0.00012357892
106	0xb67fe6c0	-3.8132275e-06
107	0xb6224ef6	-2.4185842e-06
108	0xb9598afa	-0.00020746505
109	0xb4758322	-2.2865109e-07
110	0x373922a6	1.10349265e-05
111	0x39115ef9	0.00013863658
112	0xbb0fe996	-0.0021959296
113	0x366e04b8	3.546751e-06
114	0x35c49830	1.464743e-06
115	0x35399ab0	6.914297e-07
116	0xb3ad47ea	-8.0690214e-08
117	0x36ade739	5.1827196e-06
118	0xb65e81ff	-3.3156246e-06
119	0xb581adb6	-9.661806e-07
120	0x3b5dbaed	0.003383334
121	0x3ab12b8f	0.001351701
122	0xb815ad48	-3.568575e-05
123	0xbaa720e2	-0.0012750889
124	0xb90c65dd	-0.00013389387
125	0xb997218b	-0.00028825956
126	0xb957ee11	-0.00020592684
127	0xb8ab2590	-8.160912e-05
128	0xb8700384	-5.7223733e-05
129	0x3ab91927	0.0014121876
130	0x3a8316da	0.0010001317
131	0xb9bb68e1	-0.0003574556
132	0x3b544949	0.0032392314
133	0x39203256	0.0001527754
134	0x3a53e187	0.00080826174
135	0x3b8af0bf	0.004240125
136	0x3c5f3ac4	0.013624851
137	0x3a0d441d	0.0005388873
138	0xb9e84abb	-0.00044306167
139	0xb9c7adff	-0.00038085875
140	0xb82f7390	-4.1830877e-05
141	0x3949efee	0.00019258235
142	0xb9b3cb74	-0.00034293125
143	0xb907ba8e	-0.000129441
144	0x36e55956	6.835132e-06
145	0xb6669256	-3.435785e-06
146	0x33954227	6.950386e-08
147	0x35a72ba9	1.2455176e-06
148	0x34242a9b	1.528919e-07
149	0x32f62306	2.8654096e-08
150	0xb4601079	-2.0867618e-07
151	0x338ca73f	6.54968e-08
152	0xb2b85346	-2.1458288e-08
153	0xb6e117e0	-6.708302e-06
154	0xb5ff05a4	-1.9000622e-06
155	0x34229404	1.5141273e-07
156	0x363e8ae6	2.8393056e-06
157	0x33a9f9d8	7.915122e-08
158	0x355a4064	8.130503e-07
159	0x36c13a7b	5.7586562e-06
160	0xba890e4f	-0.0010456535
161	0x349f9f7c	2.9732098e-07
162	0x347a016d	2.3283583e-07
163	0x32b38cac	2.0902313e-08
164	0x346025de	2.0875402e-07
165	0xb497185c	-2.8143666e-07
166	0x3461d3a0	2.1031747e-07
167	0x338306e9	6.10142e-08
168	0x232149f4	8.743488e-18
169	0x23d2d0f2	2.2856737e-17
170	0x21d11998	1.4169165e-18
171	0x240190b9	2.8095e-17
172	0x21e54b9e	1.5537659e-18
173	0x22194814	2.0773524e-18
174	0xa2ac20a4	-4.6655253e-18
175	0x22bb6360	5.079167e-18
176	0x20b28d06	3.0247694e-19
177	0x24914cda	6.301392e-17
178	0x247f526a	5.5364118e-17
179	0x21dff012	1.5174614e-18
180	0x24e6b0a7	1.0004586e-16
181	0x2349cfd1	1.0940239e-17
182	0xa2e285ff	-6.1399297e-18
183	0xa2438999	-2.6500272e-18
184	0xb0407553	-7.001592e-10
185	0xa2c2aa43	-5.2764077e-18
186	0x24099294	2.9831296e-17
187	0xa3697862	-1.2656447e-17
188	0x20897175	2.3283782e-19
189	0xa17647b4	-8.344294e-19
190	0x22202781	2.1704957e-18
191	0x219a0b17	1.0438381e-18
192	0x3d12dde2	0.035856135
193	0xbcc53863	-0.024074739
194	0x3a02df36	0.00049923675
195	0x3d2e31a6	0.042527817
196	0x3bf165ad	0.007366857
197	0x3bcf75cd	0.0063311816
198	0x3bdcf938	0.0067435764
199	0x3b45d2f0	0.0030185543
200	0x3a87bdf8	0.0010356298
201	0x3d88beda	0.06677027
202	0x3dd340fa	0.10315128
203	0x3c20fd40	0.0098260045
204	0xbd63f95f	-0.05565774
205	0xbb7015c9	-0.0036634079
206	0xbcf558c2	-0.02994955
207	0xbe0468c8	-0.12930596
208	0x39b1acdd	0.00033888864
209	0xbc932a42	-0.017964486
210	0x3c5326d3	0.012887674
211	0x3c5bbfe3	0.013412449
212	0x3b02b086	0.0019941642
213	0xbbadf042	-0.005308182
214	0x3c0c4c8d	0.008563173
215	0x3b2a6e07	0.0026005523
216	0x2f4956e9	1.831172e-10
217	0x2ecfd96c	9.451892e-11
218	0x2b966ae9	1.0687815e-12
219	0xaf3c7b38	-1.7142276e-10
220	0xad8ebe87	-1.6228142e-11
221	0xae08ac0b	-3.1075625e-11
222	0xad99edb6	-1.7499651e-11
223	0xac5579e8	-3.0336792e-12
224	0xac9e098a	-4.491689e-12
225	0xae24683c	-3.738186e-11
226	0xace3606a	-6.462432e-12
227	0xade9dae8	-2.6586247e-11
228	0x2f594af3	1.9762662e-10
229	0x2d445420	1.115999e-11
230	0x2ed739d1	9.787338e-11
231	0x2fe89155	4.230382e-10
232	0xba0edf24	-0.00054501207
233	0x2e1964bb	3.487764e-11
234	0xae165a47	-3.4186234e-11
235	0xae82a2f9	-5.940665e-11
236	0xacaf2ef3	-4.9790116e-12
237	0x2ddea147	2.53101e-11
238	0xae2de2c7	-3.9537065e-11
239	0xad33118c	-1.0178868e-11
240	0x3d5e4489	0.05426458
241	0xbce1f2bb	-0.027581563
242	0xbae9bc2b	-0.0017832568
243	0xbdbbb9b0	-0.091662765
244	0xbc05ce07	-0.0081667965
245	0xbc7fbdbc	-0.015609201
246	0xbc0efdb2	-0.008727478
247	0xbb5b0ce7	-0.0033424438
248	0xbb017c4b	-0.0019757922
249	0xbcc41db0	-0.023939937
250	0xbb46b418	-0.0030319747
251	0xbc6f93ad	-0.014622611
252	0xbc749a86	-0.014929419
253	0x3bf12fd3	0.0073604374
254	0x3d5d41c1	0.054017786
255	0x3e2c88bf	0.1684904

bias f4 [40]
0	0x2241ade8	2.6248443e-18
1	0xb919b4cc	-0.00014658569
2	0x3ac32d4d	0.001489082
3	0x3a2b2862	0.000652915
4	0xb7423368	-1.157527e-05
5	0xb8370b95	-4.3641387e-05
6	0xb4c2bced	-3.6272777e-07
7	0x22b13b0e	4.8038473e-18
8	0x3a3a98c1	0.0007118099
9	0xac8780f1	-3.851246e-12
10	0xbb0ff8e1	-0.0021968412
11	0xb911004b	-0.00013828387
12	0x3a62bc54	0.0008649279
13	0x9ea8d781	-1.7876822e-20
14	0x8045f725	-6.425308e-39
15	0x83598e94	-6.393424e-37
16	0x2b055cf0	4.738007e-13
17	0x25826e02	2.262595e-16
18	0x2c15fe0c	2.1315198e-12
19	0xb19e3068	-4.6039084e-09
20	0x83923d3b	-8.595167e-37
21	0xaaa522e2	-2.9334093e-13
22	0xa3acb65a	-1.8725506e-17
23	0x3b08c051	0.0020866583
24	0x399f5992	0.00030393578
25	0xb80974df	-3.277219e-05
26	0x8007a1de	-7.00915e-40
27	0xbb30d472	-0.0026982096
28	0x38b2cd03	8.525888e-05
29	0x0120d2b6	2.9538536e-38
30	0x3ac5f7c0	0.0015103742
31	0xb40f58cd	-1.3350218e-07
32	0x3b14fa47	0.0022732185
33	0xa23d7cab	-2.5680275e-18
34	0xb7165870	-8.961288e-06
35	0xb822658c	-3.8718383e-05
36	0xa62560b6	-5.737694e-16
37	0x19910389	1.4994076e-23
38	0x3a152249	0.0005689008
39	0xa0c685e6	-3.363111e-19

weight f4 [18, 40]
0	0x25d01988	3.609955e-16
1	0xbc1e93f3	-0.0096788285
2	0x3d87e88f	0.06636154
3	0x3c9e24fa	0.019304741
4	0x381782bd	3.6122965e-05
5	0x3a8de1f8	0.001082479
6	0xb7e9c016	-2.7865211e-05
7	0x2a007880	1.141049e-13
8	0x3d44351d	0.047902215
9	0x3399315b	7.1335954e-08
10	0xbd416d13	-0.047223162
11	0x3c5cb074	0.013469804
12	0x3caca5d4	0.021075167
13	0xa232dd31	-2.4240596e-18
14	0x000123fc	1.04744e-40
15	0x862031ca	-3.0129235e-35
16	0x33e3e9b6	1.0613023e-07
17	0x30e76457	1.683598e-09
18	0x36aab55f	5.087509e-06
19	0xb4ad028c	-3.2225614e-07
20	0x88d300e0	-1.2699306e-33
21	0xb345187f	-4.5889916e-08
22	0xabbb5434	-1.331052e-12
23	0x3d700ad7	0.058604088
24	0xbcc12be9	-0.023580508
25	0xb842f85e	-4.6484514e-05
26	0x00021469	1.90993e-40
27	0xbd66f679	-0.0563874
28	0x3a9567a1	0.0011398682
29	0x04118b47	1.7108621e-36
30	0x3d0287cc	0.031867787
31	0x3822f16e	3.884866e-05
32	0x3d7f6f20	0.062361836
33	0xac509a77	-2.9644323e-12
34	0x3a464e92	0.00075648085
35	0x3bb5eb79	0.005551752
36	0x2e348379	4.1044033e-11
37	0x9e8a76af	-1.4660405e-20
38	0x3c82e9a4	0.01598055
39	0xabb1e0f8	-1.2639048e-12
40	0x25d95c9c	3.7706254e-16
41	0xbbec8407	-0.0072178873
42	0x3d88fdd1	0.06689037
43	0x3cadfecb	0.021239659
44	0x398df911	0.00027079185
45	0xba587064	-0.00082564936
46	0xb7e53ac6	-2.7326296e-05
47	0xaa18c359	-1.3568087e-13
48	0x3d435e70	0.047697484
49	0x341a54d9	1.4373235e-07
50	0xbd3a0fd5	-0.045425255
51	0xbc68833c	-0.014191445
52	0x3cb9d0f1	0.022682639
53	0x9fcc5c60	-8.655018e-20
54	0x00010a4c	9.553e-41
55	0x84c8a164	-4.7167988e-36
56	0xb381828c	-6.030777e-08
57	0xb0587b58	-7.8755624e-10
58	0xb364f563	-5.3308565e-08
59	0x358df8b7	1.0577704e-06
60	0x8b5d06ab	-4.2568068e-32
61	0xb4310a30	-1.6488116e-07
62	0xaba8faff	-1.2006783e-12
63	0x3d728cf0	0.05921644
64	0xbcc545b2	-0.024081085
65	0x3bf0f604	0.007353546
66	0x8006dc67	-6.30078e-40
67	0xbd61085b	-0.05493961
68	0x3c89c5b0	0.016817898
69	0x03c10c54	1.1346351e-36
70	0x3d0706df	0.032965537
71	0x38a229af	7.732526e-05
72	0x3d81088d	0.06300459
73	0xac7af73a	-3.5664375e-12
74	0x3ba6adf8	0.0050866567
75	0x3882bcb6	6.234033e-05
76	0xae136a62	-3.3518417e-11
77	0x9e8fbbe7	-1.5218429e-20
78	0x3c93751b	0.018000176
79	0xab8ff2c4	-1.0228142e-12
80	0x263570a7	6.294966e-16
81	0x3b626f38	0.0034551155
82	0x3e07d055	0.13263066
83	0x3cd31eab	0.02577146
84	0xba07136b	-0.0005152735
85	0x3a873a3c	0.0010317038
86	0x388363ad	6.265133e-05
87	0x2a8f2bd0	2.5432304e-13
88	0x3db8e73b	0.09028479
89	0xb79e00b2	-1.8835392e-05
90	0xbdab0036	-0.083496496
91	0x3b61c3d5	0.0034449
92	0x3cecd86a	0.028911788
93	0x221015d3	1.9527193e-18
94	0x000b710f	1.050748e-39
95	0x05b012f4	1.6557923e-35
96	0x340e4520	1.3249928e-07
97	0xb1e41e6f	-6.6391332e-09
98	0xb801d249	-3.095184e-05
99	0xb3cee7e2	-9.634802e-08
100	0x8b3e2d98	-3.662697e-32
101	0xb18226ce	-3.7879095e-09
102	0x2c2b647b	2.435634e-12
103	0x3de618b0	0.112351775
104	0xbccca98e	-0.024983194
105	0xb97f5abf	-0.000243525
106	0x00021ff5	1.95135e-40
107	0xbdcf6ac3	-0.10127785
108	0x3a2521bd	0.0006299278
109	0x84232c0d	-1.9180785e-36
110	0x3d7c218a	0.061555423
111	0x38a17205	7.698316e-05
112	0x3df8e9c4	0.12153962
113	0x2c006135	1.8243855e-12
114	0x3a9004fb	0.0010987812
115	0x3b4c4a7b	0.0031172324
116	0x2e36157c	4.140109e-11
117	0x9d99edd0	-4.0744655e-21
118	0x3d040a71	0.03223652
119	0x29b5746a	8.058209e-14
120	0x0e8d5330	3.483929e-30
121	0xb1db6971	-6.385726e-09
122	0x266be756	8.184552e-16
123	0x2792fb96	4.079591e-15
124	0xa2da0eac	-5.9104553e-18
125	0x2a050de8	1.1817598e-13
126	0x22a7aec2	4.5450473e-18
127	0x158997c8	5.557333e-26
128	0xa51b162c	-1.3451619e-16
129	0x9f1c4655	-3.3092462e-20
130	0x27d5dc4c	5.9358222e-15
131	0xb147d75d	-2.9080731e-09
132	0x2d3e68ac	1.0823491e-11
133	0x8a4ad642	-9.766244e-33
134	0x0003cdbe	3.49313e-40
135	0x0007e085	7.23391e-40
136	0x2007cc8e	1.1502626e-19
137	0x9ad061de	-8.6184897e-23
138	0xa7572f06	-2.9862735e-15
139	0x9f75c55b	-5.2044017e-20
140	0x80232292	-3.226644e-39
141	0xa0097ef8	-1.1646362e-19
142	0x17d29c5f	1.3610406e-24
143	0xa6c6042b	-1.374014e-15
144	0x281d534a	8.733311e-15
145	0xae32a780	-4.0621284e-11
146	0x8008fd07	-8.25453e-40
147	0x25d11fe3	3.6277328e-16
148	0xb337fb2e	-4.2836454e-08
149	0x8007c58a	-7.13712e-40
150	0xa4ee9d51	-1.0348255e-16
151	0xa148ff92	-6.810088e-19
152	0xa624fd5a	-5.7242285e-16
153	0x1911a7f9	7.530246e-24
154	0xa804700b	-7.351767e-15
155	0x316405a1	3.3181566e-09
156	0x1add421e	9.1510276e-23
157	0x8649002f	-3.7804033e-35
158	0xaa102451	-1.2802369e-13
159	0x96f0c7d8	-3.890021e-25
160	0x243491ce	3.915478e-17
161	0xbbc01906	-0.005862358
162	0xbcba222c	-0.022721373
163	0xbc1ccea2	-0.0095707495
164	0xb8da78cd	-0.00010417551
165	0xbbf3790a	-0.0074302005
166	0x379c84ba	1.8658455e-05
167	0xa95bed38	-4.8833523e-14
168	0xbc74f367	-0.01495061
169	0xb3454254	-4.5927962e-08
170	0x3c95a869	0.01826878
171	0x3b6b0eac	0.00358669
172	0xbc2549a3	-0.010088357
173	0x203b7cc3	1.5880796e-19
174	0x000aa149	9.76213e-40
175	0x8411d2dc	-1.714149e-36
176	0xb3c49a6e	-9.155052e-08
177	0xb0b181bb	-1.2915317e-09
178	0xb272a2c6	-1.4123264e-08
179	0xb5214e6b	-6.0091287e-07
180	0x0ad2d29e	2.030149e-32
181	0x332e5eee	4.059887e-08
182	0xabd1f5be	-1.491855e-12
183	0xbca5d3fe	-0.020242687
184	0x3c5fcf2e	0.013660235
185	0xbaa36d7b	-0.0012468541
186	0x00074a78	6.69563e-40
187	0x3cb640cc	0.022247694
188	0x3c59e0c8	0.013298221
189	0x83b14104	-1.0418052e-36
190	0xbc4cfc67	-0.012511349
191	0x384d37c9	4.8927763e-05
192	0xbcb00b7a	-0.021489847
193	0xab19e0d0	-5.466851e-13
194	0xba76f26d	-0.00094202795
195	0xb98f5596	-0.00027338852
196	0xade48fde	-2.5984489e-11
197	0x9d45cdaa	-2.6179059e-21
198	0xbc123821	-0.008924515
199	0x2af6e3e4	4.385651e-13
200	0xa5c52fa5	-3.4206338e-16
201	0xbbd0cb46	-0.0063718883
202	0xbd6788c8	-0.05652693
203	0xbcc71060	-0.0242998
204	0x3822c8b0	3.8810715e-05
205	0xba9e84b9	-0.0012093998
206	0x382373b2	3.8969978e-05
207	0xaa828b8e	-2.3189474e-13
208	0xbd1b2945	-0.037881155
209	0xb32eb8ed	-4.068072e-08
210	0x3d4a8849	0.049446378
211	0x3d166143	0.03671385
212	0xbcd1748b	-0.025568267
213	0x20e7048e	3.9135936e-19
214	0x0008726c	7.75731e-40
215	0x06227072	3.0551425e-35
216	0xb407e873	-1.265742e-07
217	0xb137cbcb	-2.6745848e-09
218	0x336609f2	5.3560093e-08
219	0x3566facc	8.6046634e-07
220	0x8c1a21f9	-1.1873952e-31
221	0x31eaed9d	6.83731e-09
222	0xabf5db18	-1.7469108e-12
223	0xbd516a07	-0.051126506
224	0x3d172391	0.036899153
225	0xbbae2c33	-0.0053153276
226	0x80050c8c	-4.63678e-40
227	0x3d714e24	0.05891241
228	0x3a3ac9ea	0.00071254245
229	0x03e21cba	1.32896815e-36
230	0xbd03feb5	-0.03222533
231	0xb87c48d0	-6.0149294e-05
232	0xbd601d7e	-0.054715626
233	0xa9fe9110	-1.130503e-13
234	0x3b69518b	0.0035601582
235	0x3c10bbfb	0.008833881
236	0xaea4a1e4	-7.486614e-11
237	0x9c3ce3d0	-6.2498423e-22
238	0xbcafc9bd	-0.021458501
239	0xaae83d56	-4.125404e-13
240	0x8aa77893	-1.612687e-32
241	0xa0098f53	-1.1651773e-19
242	0x20046f52	1.1217668e-19
243	0x1f6a6c34	4.964093e-20
244	0x17e5031a	1.4799561e-24
245	0x9fe28ddd	-9.5949416e-20
246	0x1adb9afb	9.082666e-23
247	0x0f66d5d8	1.138106e-29
248	0x20c70b8b	3.371955e-19
249	0x18d03ff5	5.383132e-24
250	0xa10f5308	-4.8560176e-19
251	0x9eee8ac6	-2.5256626e-20
252	0x1ecc8e71	2.1658253e-20
253	0x82bf6128	-2.8120693e-37
254	0x000c7645	1.144453e-39
255	0x004a3941	6.816366e-39

bias f4 [18]
0	0x3ac6a978	0.0015156707
1	0x3b0b1af8	0.0021225791
2	0x3b9548d3	0.0045558005
3	0xa603f814	-4.5785964e-16
4	0xb956f8e1	-0.00020501345
5	0xba007dd4	-0.00049015624
6	0x9e4febbb	-1.1007237e-20
7	0xba45dcbb	-0.0007547845
8	0x3b4682de	0.0030290405
9	0xba3f1175	-0.0007288673
10	0xba65ef70	-0.00087713357
11	0xba9fc3e1	-0.0012189114
12	0xbaaea524	-0.0013324362
13	0xb9b105b1	-0.0003376431
14	0x3b9347e5	0.0044946545
15	0xb8d5e1ba	-0.00010198676
16	0xbaae2c4f	-0.0013288351
17	0x3696ab08	4.490259e-06

weight f4 [1, 18]
0	0x3e11f1ab	0.14252345
1	0x3e110a16	0.14164004
2	0x3e90e1f5	0.28297392
3	0xad91804e	-1.654157e-11
4	0xbd6e5729	-0.05818859
5	0xbe122ce8	-0.14274943
6	0x20e7c92c	3.9266047e-19
7	0xbe00a512	-0.1256297
8	0x3e5117ef	0.20419286
9	0xbe1a0375	-0.15040381
10	0xbdff66f6	-0.1247081
11	0xbe1e29e0	-0.15445662
12	0xbe2c88b5	-0.16849025
13	0xbe09eac1	-0.13468458
14	0x3e9002ef	0.28127238
15	0xbd04bc9e	-0.032406442
16	0xbe83b35a	-0.25722772
17	0xbd7ae595	-0.061254103
