models/model4.pth (torch, 10750 bytes, 5 tensors)

weight f4 [40, 24]
0.05630728 -0.042293023 -0.0020785667 -0.12941381 -0.011703036 -0.022611968 -0.010201983 -0.003660679
-0.0020647203 -0.01700584 -0.003005533 -0.019493166 -0.01968535 0.0076783556 0.07539208 0.24876863
-0.00011384573 0.048365705 -0.028315688 -0.026724499 -0.0025390852 0.016725883 -0.027900217 -0.0058868155
1.7423926e-07 -7.909472e-07 3.4613692e-09 1.2941334e-07 -2.342997e-10 1.1974661e-08 -8.384089e-10 -1.8116084e-09
-2.8586356e-11 2.9999555e-07 1.9198919e-07 1.3043172e-08 9.374576e-07 1.6513707e-09 -6.820672e-08 -3.4943162e-07
-2.0700727e-06 -4.1026247e-08 -1.1117865e-08 -4.955e-09 -1.1040597e-09 4.2305377e-09 -2.1172766e-09 7.1208777e-09
0.0017630209 0.0015352743 9.3010485e-06 -0.00030993277 -6.337722e-05 -0.00018217276 -0.00012971344 -3.8656763e-05
-1.8716593e-05 0.0025560842 0.0017863059 -0.00017622997 0.002166723 8.999276e-05 0.00026790955 0.0012333414
0.0024305654 0.00026852245 -0.0001670524 -0.00021155046 -2.8479775e-05 0.00014653025 -0.00021934236 -4.750556e-05
-9.4174364e-05 0.00019210661 -1.839472e-05 0.00018847045 9.5243835e-05 0.000110487024 6.4173466e-05 2.6076483e-05
2.0840904e-05 0.0012958439 0.0016181867 0.000100498146 -3.5031124e-05 -2.1241152e-05 -0.00025083876 -0.0010841588
0.0054506087 -0.00025072604 0.00015467434 0.00013920279 1.6730708e-05 -0.000103317216 0.00010949758 6.187942e-05
0.0022686643 0.0017306897 -7.3088704e-05 -0.0009385186 -0.00017509969 -0.00044432297 -0.0002553153 -6.540399e-05
-3.4387427e-05 0.0025925075 0.0014585607 -0.00039365876 0.0022393493 0.00015137371 0.00073843944 0.0022292498
0.0049332 0.0007042679 -0.00054221647 -0.00052644673 -4.2192678e-05 0.0003267206 -0.0005264473 -0.00019063277
0.00195743 0.001489905 -4.460063e-05 -0.0007473181 -0.00015140275 -0.0003619837 -0.00020874658 -6.618769e-05
-1.2184229e-05 0.0024630832 0.0017530376 -0.000321869 0.0019419435 0.00015213355 0.00062869786 0.0017194072
0.00509392 0.0005802691 -0.0004105391 -0.00031944088 -5.163258e-05 0.0002495878 -0.00039182135 -0.00010182311
0.00017207557 0.000647234 -1.4878839e-05 0.0004179283 0.00014312503 0.00017911626 0.00011810075 6.504893e-05
4.010396e-05 0.0018777851 0.0019652238 0.00021661476 0.00051394757 -6.458756e-05 -0.00037149875 -0.0011066758
0.0039972183 -0.0003519323 0.0002872564 0.00022401301 3.0665367e-05 -0.00020507752 0.00024366964 5.891834e-05
0.057394225 -0.053264253 -0.0019226067 -0.12102078 -0.01068215 -0.020996109 -0.009375878 -0.0034951954
-0.0018583371 -0.020795817 -0.004562797 -0.017864542 -0.0029955944 0.0071612396 0.070524305 0.23740974
-0.0001789913 0.044856317 -0.026208477 -0.024673129 -0.0024265763 0.0152162295 -0.025770316 -0.0057025566
0.0011823466 0.0010158364 -3.7673184e-05 -0.00017758016 -3.0150559e-05 -0.00010387468 -6.048652e-05 -1.8213812e-05
2.912028e-06 0.0019575285 0.0014969078 -8.28032e-05 0.0013310624 5.4877346e-05 0.00019489646 0.0006322459
0.004348415 0.0001672865 -0.000117633106 -0.00011846615 -7.0620436e-06 4.526555e-05 -0.00014062595 -2.5388073e-05
0.0037444525 0.002552313 -6.0907994e-05 -0.0015459252 -0.0004567604 -0.00057855947 -0.00037429875 -0.00015037754
-0.0001015011 0.0037626526 0.0019979044 -0.0004900861 0.003435826 0.0003389593 0.00089557806 0.0036313112
0.0040727807 0.0007312677 -0.00059515325 -0.00057569594 -0.0001441747 0.00047406935 -0.00066309294 -0.00019745533
0.00203462 0.0015187672 -4.905695e-05 -0.00088106235 -0.00020753735 -0.00036631816 -0.00018410049 -4.9334416e-05
-1.4033643e-05 0.002370762 0.001558499 -0.0003412803 0.0017135902 0.0001472528 0.00072176824 0.0018258184
00000000: 76a2 663d 733b 2dbd 9038 08bb 0e85 04be
00000010: 17be 3fbc bc3c b9bc 3826 27bc 01e8 6fbb
00000020: 4250 07bb d54f 8bbc 7af8 44bb 22b0 9fbc
00000030: 2c43 a1bc b79a fb3b 2a67 9a3d 34bd 7e3e
00000040: 76c0 eeb8 1e1b 463d 4df6 e7bc 56ed dabc
00000050: c866 26bb b804 893c ff8e e4bc 30e6 c0bb
00000060: 8616 3b34 7a51 54b5 0ddd 6d31 def4 0a34
00000070: c0ce 80af 1eb9 4d32 c875 66b0 4efc f8b0
00000080: c072 fbad 130f a134 9625 4e34 7a14 6032
00000090: 99a5 7b35 71f6 e230 0a79 92b3 8499 bbb4
000000a0: 94eb 0ab6 d634 30b3 e300 3fb2 a440 aab1
000000b0: a6bd 97b0 345c 9131 867f 11b1 e7ab f431
000000c0: 2a15 e73a 423b c93a b30b 1c37 797e a2b9
000000d0: 63e9 84b8 a105 3fb9 b003 08b9 6223 22b8
000000e0: 9401 9db7 fa83 273b 7b22 ea3a 5fca 38b9
000000f0: 94ff 0d3b 7fba bc38 3676 8c39 12a8 a13a
00000100: 1f4a 1f3b 79c8 8c39 ca2a 2fb9 a5d3 5db9
00000110: dae7 eeb7 eaa5 1939 44ff 65b9 b540 47b8
00000120: 7a7f c5b8 3a70 4939 5c4e 9ab7 27a0 4539
00000130: a5bd c738 45b5 e738 de94 8638 d2be da37
00000140: 80d3 ae37 4ed9 a93a 5619 d43a 88c2 d238
00000150: 62ee 12b8 072f b2b7 0283 83b9 551a 8eba
00000160: 059b b23b e173 83b9 1430 2239 f7f6 1139
00000170: ec58 8c37 02ac d8b8 11a2 e538 43c5 8138
00000180: dfad 143b 4fd8 e23a 3347 99b8 eb06 76ba
00000190: f79a 37b9 05f4 e8b9 d7db 85b9 8029 89b8
000001a0: 383b 10b8 0fe7 293b 2d2d bf3a fc63 ceb9
000001b0: 0cc2 123b 12ba 1e39 d593 413a 9b18 123b
000001c0: aea6 a13b 9e9e 383a 8823 0eba 3e01 0aba
000001d0: 0bf8 30b8 b24b ab39 4801 0aba 98e4 47b9
000001e0: 3a48 003b ea48 c33a 9011 3bb8 abe7 43ba
000001f0: dec1 1eb9 a1c8 bdb9 fce2 5ab9 3fce 8ab8
00000200: dd6a 4cb7 ae6b 213b 2ec6 e53a 87c0 a8b9
00000210: d088 fe3a 0a86 1f39 33cf 243a bb5d e13a
00000220: e6ea a63b 331d 183a a03d d7b9 a17a a7b9
00000230: 1090 58b8 1cdb 8239 5f6d cdb9 de89 d5b8
00000240: 2f6f 3439 23ab 293a 20a0 79b7 631d db39
00000250: d513 1639 28d1 3b39 dbac f738 e16a 8838
00000260: 4d35 2838 0320 f63a fcca 003b 1523 6339
00000270: 70ba 063a 2f73 87b8 b8c5 c2b9 e10d 91ba
00000280: 19fb 823b 8e83 b8b9 e79a 9639 09e5 6a39
00000290: b09e 0038 140a 57b9 9281 7f39 161f 7738
000002a0: 3516 6b3d 9e2b 5abd faff fbba bed9 f7bd
000002b0: 2f04 2fbc 0800 acbc 489d 19bc a60f 65bb
000002c0: 7293 f3ba fd5b aabc 8483 95bb a958 92bc
000002d0: bc51 44bb d5a8 ea3b 0c6f 903d 8a1b 733e
000002e0: 9caf 3bb9 42bb 373d 29b3 d6bc 4d1f cabc
000002f0: 3207 1fbb 7e4d 793c 451c d3bc 83dc babb
00000300: f8f8 9a3a d025 853a 4603 1eb8 d034 3ab9
00000310: d5eb fcb7 4bd7 d9b8 e8b2 7db8 ddc9 98b7
00000320: 436c 4336 e149 003b e433 c43a a1a6 adb8
00000330: 0b77 ae3a 1a2c 6638 1f5d 4c39 4ebd 253a
00000340: 267d 8e3b a169 2f39 cbb1 f6b8 0871 f8b8
00000350: 7ef6 ecb6 84db 3d38 fe74 13b9 79f8 d4b7
00000360: 7d65 753b b544 273b 7677 7fb8 a4a0 caba
00000370: 5879 efb9 78aa 17ba 873d c4b9 aaae 1db9
00000380: fddc d4b8 d696 763b 46ef 023b 1f79 00ba
00000390: 982b 613b 59b6 b139 3ac5 6a3a 4bfb 6d3b
000003a0: f674 853b 8bb2 3f3a 0f04 1cba 4dea 16ba
000003b0: 9a2d 17b9 838c f839 6ad3 2dba 030c 4fb9
000003c0: 4257 053b 5f11 c73a 80c2 4db8 18f7 66ba
000003d0: 629e 59b9 640e c0b9 190b 41b9 6dec 4eb8
000003e0: 0a72 6bb7 c95e 1b3b 8c46 cc3a deed b2b9
000003f0: 8c9a e03a df67 1a39 0c35 3d3a 4d50 ef3a

bias f4 [40]
-0.0026219804 -4.995934e-09 -1.5089052e-05 -2.8706899e-07 -8.920393e-05 -5.4165062e-05 -7.98843e-06 -0.0024236236
-3.35983e-05 -4.885934e-05 -8.542127e-05 5.79828e-40 -4.1235766e-05 0.0018219204 -1.6649437e-37 -4.7905202e-26
-5.463949e-39 -5.1476018e-05 1.0293228e-05 1.0946067e-15 -0.0008991606 -8.074732e-05 0.0017012139 0.0011569395
-3.3127762e-05 6.640195e-08 -7.565588e-05 1.4379417e-28 -5.991973e-05 0.0012667516 -6.406888e-05 0.0018116474
-0.00011332726 -6.870475e-05 -1.7538661e-05 -9.396607e-05 -3.9472983e-05 -1.7121429e-05 1.8868708e-05 1.3742627e-20
00000000: 88d5 2bbb b3a8 abb1 fc26 7db7 761e 9ab4
00000010: ff12 bbb8 4b2f 63b8 0c06 06b7 a8d5 1ebb
00000020: e6eb 0cb8 51ee 4cb8 3224 b3b8 5350 0600
00000030: 91f4 2cb8 81cd ee3a d29e 6282 0f37 6d95
00000040: 447f 3b80 f4e7 57b8 14b1 2c37 dcbf 9d26
00000050: a5b5 6bba e356 a9b8 44fb de3a 73a4 973a
00000060: aaf2 0ab8 dc98 8e33 71a9 9eb8 e047 3611
00000070: 5252 7bb8 2109 a63a b85c 86b8 cd74 ed3a
00000080: 1caa edb8 9515 90b8 fd1f 93b7 a60f c5b8
00000090: cb8f 25b8 fd9f 8fb7 3e48 9e37 a2cb 811e

weight f4 [18, 40]
-0.04948614 -1.422668e-06 0.00062171015 0.0036947825 0.0011610632 0.0018617412 0.0026750406 -0.047102965
0.0013782135 0.00038290618 0.0010473367 1.004595e-39 -0.00027838128 0.050354503 -2.1031477e-36 1.475104e-23
4.403446e-36 0.000992387 0.002553532 -2.7866653e-11 -0.02117256 0.0005098284 0.027083728 0.05136405
0.0021012563 -5.4714896e-05 0.002832972 1.0619432e-25 0.0008454782 0.052689202 0.00092910166 0.05013856
0.0009340837 0.0010212351 0.0001226236 0.0012309183 0.0009828113 0.0025527456 0.0010581663 4.410605e-18
-8.4558075e-18 -2.5128832e-22 1.3937251e-18 -4.1692291e-19 1.1828967e-20 9.436475e-19 2.254669e-18 -1.5138211e-17
3.9368896e-18 1.2894466e-18 -1.6914073e-18 6.7869e-40 6.1476195e-18 1.7101403e-17 -8.97802e-40 4.5317222e-38
2.861011e-38 3.550524e-18 1.4314706e-18 -1.4943543e-26 -4.1375926e-18 4.5022035e-19 5.5207424e-18 3.1287634e-17
1.4603469e-18 -4.8360132e-20 8.375626e-18 8.79273e-40 4.0789103e-18 3.176655e-17 2.9804695e-18 2.3165112e-17
-7.1161976e-19 5.662357e-18 1.75145e-18 1.4138533e-18 3.9516217e-19 8.383366e-19 2.322399e-18 1.8816783e-33
0.04363282 1.7789706e-06 0.00099424 0.0010306976 0.0020303754 0.0024144622 2.771985e-05 0.041178335
0.001164202 0.0014850926 0.0018693062 -7.65909e-40 0.002526498 -0.03559218 -3.3089262e-36 1.494389e-23
-1.5701857e-36 0.0018593034 0.0005973451 1.0180897e-12 0.021291493 0.0017969658 -0.026737195 -0.036263198
0.00092233106 -0.00011348657 0.0020918204 8.710212e-25 0.0012255042 -0.036995247 0.0020750053 -0.03459439
0.002843533 0.0014085538 0.001445363 0.0019445696 0.0023651135 0.00065434235 0.0014383594 -2.315717e-18
0.03046638 -1.0383908e-06 0.00051519694 -0.00060086115 0.0022248034 0.0015507351 -0.00049299304 0.029364511
0.0012559214 0.0026646415 0.0017972413 -1.225674e-39 0.0025689176 -0.025848096 -4.856995e-36 5.817565e-23
-2.6226442e-36 0.0013908648 -0.00022910131 2.1251797e-11 0.014811019 0.0012392713 -0.018373547 -0.026309226
0.0005239723 -3.721295e-05 0.001947528 -7.702867e-26 0.00023046791 -0.026973054 0.0011249175 -0.025238503
0.0021954165 0.00023354734 0.0013139365 0.00155354 0.001914029 -0.00055329327 0.000106090825 1.379604e-18
-0.0394526 -5.0532606e-07 0.0018731868 0.004157589 0.0028814261 0.003095286 0.0040362077 -0.037916183
0.003735036 0.0012202872 0.0034338397 3.17152e-40 0.0018339291 0.040506274 -6.453632e-36 -3.5858733e-23
9.9720865e-37 0.0033553543 0.003011406 -2.8169895e-11 -0.01714186 0.0018275637 0.022174878 0.040850233
0.0033665744 5.2149368e-05 0.004204417 1.3345249e-25 0.0017950538 0.042365488 0.0024512995 0.040210202
0.0034648308 0.0029428576 0.001923479 0.0021356207 0.0028548033 0.0038781755 0.0032860024 1.6111551e-18
0.17037877 -1.1392815e-06 0.0033071553 0.0018239954 0.002851718 0.0028402926 0.0022126844 0.15728925
0.0019041713 0.004634843 0.0027135075 -4.44453e-40 0.004005897 -0.10319385 -2.7277532e-36 -7.455106e-23
-3.6342895e-37 0.0026817762 0.0025876516 -5.510183e-11 0.079489976 0.002801393 -0.12214535 -0.11619723
0.0022228442 -0.00021609647 0.0025909864 -1.8511604e-25 0.005635621 -0.10740254 0.0027685387 -0.098392405
0.0023491716 0.0035541703 0.0020373652 0.0030241911 0.0024068248 0.0018103021 0.003417553 -2.2072469e-18
0.04069658 1.1011464e-06 0.0009960601 0.0004267798 0.0016170205 0.0020564573 0.00014379028 0.03868615
0.00037176156 0.0016524227 0.0016070668 6.91677e-40 0.002396835 -0.032833636 6.9569456e-36 4.588313e-23
00000000: fbb1 4abd 80f2 beb5 43fa 223a 2a24 723b
00000010: d12e 983a ab05 f43a bc4f 2f3b 0aef 40bd
00000020: 2ca5 b43a ccc0 c839 ca46 893a 67f0 0a00
00000030: b4f3 91b9 8640 4e3d 80ea 3284 cea9 8e19
00000040: 484d bb04 fb12 823a 2859 273b 201e f5ad
00000050: 1472 adbc 01a6 053a b2de dd3c 1c63 523d
00000060: 3bb5 093b ac7d 65b8 62a9 393b 5376 0316
00000070: 15a3 5d3a a2d0 573d f58e 733a 175e 4d3d
00000080: 4cdd 743a f7da 853a 8694 0039 c456 a13a
00000090: add1 803a f74b 273b 2bb2 8a3a fdb8 a222
000000a0: 6cfb 1ba3 fce4 979b 72ad cd21 9c1b f6a0
000000b0: 6071 5f1e ff41 8b21 7e5d 2622 17a0 8ba3
000000c0: df3e 9122 ea49 be21 909b f9a1 e963 0700
000000d0: a0ce e222 8cbb 9d23 b5c6 0980 fdba 7601
000000e0: acc4 1b01 c0fd 8222 6e3f d321 62fe 9394
000000f0: 75a6 98a2 b0e1 0421 f0ad cb22 eb49 1024
00000100: 5982 d721 d05f 649f c780 1a23 0e93 0900
00000110: 387c 9622 537f 1224 7aeb 5b22 13a9 d523
00000120: 7808 52a1 73e7 d022 f53b 0122 dea5 d021
00000130: 3843 e920 ec6e 7721 e05c 2b22 df52 1c09
00000140: 54b8 323d f7c4 ee35 2951 823a 7918 873a
00000150: 0c10 053b f43b 1e3b ed87 e837 9daa 283d
00000160: 2398 983a 70a7 c23a 8203 f53a 0b57 0880
00000170: 9a93 253b 1bc9 11bd 04bf 8c84 4887 9019
00000180: 9e93 0584 dfb3 f33a 2797 1c3a 8c48 8f2b
00000190: 7f6b ae3c 2b88 eb3a f607 dbbc b888 14bd
000001a0: 97c8 713a a3ff edb8 ec16 093b b4c8 8617
000001b0: 19a1 a03a 5488 17bd d0fc 073b d9b2 0dbd
000001c0: 915a 3a3b 399f b83a 5672 bd3a eee0 fe3a
000001d0: 0500 1b3b 2c88 2b3a 5587 bc3a a8de 2aa2
000001e0: a194 f93c d65e 8bb5 480e 073a 1c83 1dba
000001f0: 02ce 113b 0942 cb3a 343c 01ba d88d f03c
00000200: bb9d a43a 44a1 2e3b 6991 eb3a ae58 0d80
00000210: 495b 283b 63bf d3bc fe97 ce84 fca8 8c1a
00000220: 221c 5f84 ae4d b63a ea3a 70b9 cbee ba2d
00000230: eba9 723c 0b6f a23a 1f84 96bc 7286 d7bc
00000240: 305b 093a 1a15 1cb8 3244 ff3a b8b6 be95
00000250: c2a9 7139 98f6 dcbc f871 933a fac0 cebc
00000260: fae0 0f3b 63e4 7439 6538 ac3a 27a0 cb3a
00000270: 28e0 fa3a e20a 11ba 147d de38 f797 cb21
00000280: 0d99 21bd bea5 07b5 b885 f53a 623c 883b
00000290: 4fd6 3c3b 48da 4a3b 2a42 843b 004e 1bbd
000002a0: 81c7 743b 0bf2 9f3a 450a 613b 1774 0300
000002b0: 7360 f03a e8e9 253d ea40 0985 f666 2d9a
000002c0: 90aa a903 81e5 5b3b 025b 453b f7c8 f7ad
000002d0: 166d 8cbc dd8a ef3a 17a8 b53c 9352 273d
000002e0: bfa1 5c3b f5ba 5a38 35c5 893b c834 2516
000002f0: 0348 eb3a 6f87 2d3d fba5 203b 74b3 243d
00000300: 3712 633b f5dc 403b 3f1d fc3a c5f5 0b3b
00000310: a717 3b3b fd28 7e3b f959 573b b8c3 ed21
00000320: c677 2e3e 6ae9 98b5 dcbc 583b 2113 ef3a
00000330: e4e3 3a3b 3424 3a3b af02 113b 6f10 213e
00000340: 6395 f93a e2df 973b 1ad5 313b f4d6 0480
00000350: e643 833b 4c57 d3bd 340d 6884 df40 b49a
00000360: 4156 f782 bdc0 2f3b 9795 293b 2557 72ae
00000370: a4cb a23d 9397 373b 5727 fabd d0f8 edbd
00000380: 23ad 113b f497 62b9 8acd 293b 9d29 6596
00000390: 04ab b83b ddf5 dbbd 5f70 353b f581 c9bd
000003a0: 8ff4 193b 15ed 683b 5185 053b 8231 463b
000003b0: d2bb 1d3b a947 ed3a 06f9 5f3b b7dd 22a2
000003c0: 75b1 263d 1acb 9335 3b8e 823a 6ac1 df39
000003d0: 34f2 d33a a1c5 063b 69c6 1639 5e75 1e3d
000003e0: fee8 c239 1b96 d83a 37a4 d23a 1d88 0700
000003f0: 3814 1d3b 907c 06bd 37f5 1305 90e0 5d1a

bias f4 [18]
0.00072611717 2.4408818e-18 -0.00020992945 -0.00053299917 0.0003716399 -0.0022934235 -0.00036013452 -4.551989e-14
0.00027959098 -9.9882694e-05 -0.0008633479 0.0035965221 -7.018788e-09 8.237012e-12 -1.3779615e-09 0.0043057804
-0.0009650473 -7.202517e-05
00000000: e658 3e3a f41a 3422 8220 5cb9 f8b8 0bba
00000010: aad8 c239 434d 16bb 70d0 bcb9 dc00 4da9
00000020: 1196 9239 1d78 d1b8 4c52 62ba a1b3 6b3b
00000030: ea29 f1b1 34e8 102d b662 bdb0 8117 8d3b
00000040: 3afb 7cba 380c 97b8

weight f4 [1, 18]
0.10339094 2.1424592e-17 -0.09278829 -0.06719177 0.080766775 -0.3418229 -0.08798336 -3.0245445e-08
0.08660173 -0.0060227877 -0.21226217 0.24978398 -7.079284e-08 -1.8243917e-10 7.0844166e-08 0.26674837
-0.21971132 -0.0018588136
00000000: a1be d33d 639b c523 c907 bebd d79b 89bd
00000010: 0d69 a53d 6903 afbe 9f30 b4bd 38e7 01b3
00000020: 3f5c b13d ce5a c5bb 415b 59be 5fc7 7f3e
00000030: c606 98b3 1098 48af fe22 9833 3e93 883e
00000040: 01fc 60be 6fa3 f3ba
