models/model7.pth (torch, 10750 bytes, 5 tensors)

weight f4 [40, 24]
0.00089098845 -0.00029397407 5.110307e-06 -0.0013159418 -9.344521e-05 -0.00016360935 -9.112737e-05 -6.292813e-05
-3.892542e-05 -0.0012259884 -0.0013850176 -0.00020998795 0.0010104841 7.6214026e-05 0.00079521333 0.0028939475
0.0064288224 0.0005039188 -0.0002755593 -0.0002175218 -1.9166302e-05 0.00018264189 -0.00019926755 -7.4689204e-05
1.00527585e-29 7.010196e-30 -7.6823687e-32 -2.197436e-30 -1.047284e-31 -1.9053571e-31 -1.217808e-30 -3.1256649e-31
-7.4643033e-32 -9.384007e-31 -4.2624083e-30 -2.1483133e-31 1.4702289e-29 3.3708076e-31 1.3223147e-30 -4.718169e-30
-1.781462e-22 1.8772875e-31 -1.1475464e-30 -7.8155347e-31 1.4409072e-32 5.9961967e-31 -3.1735545e-31 2.7382982e-32
-3.1909946e-22 -2.006693e-21 -8.517443e-24 8.1212026e-22 -1.6767338e-22 5.0755063e-22 2.2078074e-22 1.6587722e-23
-2.1221494e-24 -3.4771446e-21 8.1214475e-22 1.0247205e-22 -4.5826565e-21 -1.9573739e-22 -5.0690627e-22 8.953657e-21
-6.9298192e-15 -3.521269e-22 6.3161775e-21 -1.1737843e-21 1.01264345e-22 -8.689528e-23 7.0799105e-23 4.6311443e-23
-0.00029616305 -0.0007101351 -0.00014985938 -0.00010368948 9.233932e-05 -1.6549475e-06 -5.5101103e-05 -1.4249845e-05
-1.0051946e-05 -0.0019576414 -0.002360763 4.9686816e-05 -0.00030520867 -2.2869972e-06 -0.00010818945 0.00085807865
0.020253474 9.842879e-06 -2.6658385e-05 1.1246253e-05 6.592345e-06 -0.00014682574 4.778446e-05 -2.8510163e-05
0.00063520024 8.685459e-05 -7.279668e-05 -0.0009700387 -6.6123925e-05 -0.00012035535 -6.419923e-05 -5.3314478e-05
-2.1388845e-05 -0.0010567924 -0.0012620531 -0.0001399979 0.0012942275 6.125833e-05 0.0005415785 0.0020837383
0.009024768 0.0002974039 -0.0001775953 -0.00015260183 5.943189e-06 5.9494065e-05 -0.00013541018 -6.0024482e-05
8.05187e-40 -9.87471e-40 1.57764e-40 2.868509e-38 9.45165e-40 -9.17898e-40 -5.47878e-40 -5.88073e-40
-9.2821e-40 -7.24164e-40 4.97797e-40 -6.40828e-40 -1.61889e-40 1.030212e-39 2.72889e-40 9.54e-41
-7.49477e-40 -1.5e-40 -4.09733e-40 -8.09114e-40 -3.05654e-40 -3.05798e-40 3.10865e-40 -8.821e-42
0.0074383044 0.004099889 8.61797e-05 -0.0035365822 -0.00045194625 -0.00079006254 -0.000507833 -0.00013487544
-7.055012e-05 0.003166512 0.0017786766 -0.0008224155 0.011073592 0.00033188582 0.0023605502 0.011858928
0.04860725 0.001583585 -0.0010397595 -0.0009835217 -3.116207e-05 0.0008105208 -0.0010044436 -0.00026560295
-0.00044364238 -0.0007359799 -0.00013175562 -0.0001083957 6.651503e-05 3.178489e-06 -1.0765393e-05 -1.1246731e-05
-1.14627965e-05 -0.002020961 -0.0026945625 2.4473797e-05 0.00035462558 3.6171953e-06 -3.69271e-05 0.0011856614
0.008232928 -2.1439155e-06 -8.927516e-06 -3.302414e-05 -2.3664572e-05 -0.00013301848 1.9000929e-05 -2.3209086e-05
-0.0015409453 -0.00052760105 -3.325748e-05 0.00050014904 0.00010989561 4.278275e-05 4.6631394e-06 4.204238e-05
8.74386e-06 -0.0014383342 -0.0018297718 1.8631736e-05 -1.3259014e-06 -9.759591e-06 -0.0003431806 -0.0011038816
0.012704625 -0.00014970204 5.3904056e-05 6.1247556e-05 7.5430776e-06 -0.00012400067 0.00011191808 2.4133997e-06
-0.0019933814 -0.0010148522 -5.2102114e-06 0.00034882565 8.390458e-05 5.5572804e-05 -9.860143e-06 -2.0829764e-06
-3.6219212e-06 -0.0015720566 -0.0018853475 4.9303253e-06 -0.00094789814 -1.4823101e-05 -0.00026050193 -0.0018367809
0.0048372983 -0.00012358533 5.316687e-05 3.6750855e-05 -2.388509e-06 -4.11081e-05 3.7244805e-05 2.040529e-05
0.065955654 0.06074934 0.0004812852 0.047324833 0.011534424 0.00946351 0.010039365 0.004004212
0.0016621021 0.093825765 0.12929715 0.014567394 -0.1373956 -0.005299509 -0.036673363 -0.1795633
00000000: 3991 693a 8820 9ab9 3479 ab36 ae7b acba
00000010: 04f8 c3b8 8d8e 2bb9 a21b bfb8 48f8 83b8
00000020: da43 23b8 58b1 a0ba 7b89 b5ba 3630 5cb9
00000030: 3872 843a 18d5 9f38 dd75 503a 62a8 3d3b
00000040: dfa8 d23b 6b19 043a f178 90b9 9016 64b9
00000050: 52c7 a0b7 8f83 3f39 7af2 50b9 76a2 9cb8
00000060: e8e4 4b0f 052f 0e0f 1972 c78b f646 328e
00000070: fbf1 078c 5a54 778c c499 c58d 04de ca8c
00000080: cec8 c18b a443 988d 61e7 ac8e fa6e 8b8c
00000090: 5319 950f 26c7 da0c ce8e d60d 4564 bf8e
000000a0: 945d 579b 94af 730c 3633 ba8d eca0 7d8d
000000b0: e2a1 950a 7496 420d b8f9 cd8c 3a2e 0e0b
000000c0: 40e2 c09b 169f 179d 56c0 2499 c372 751c
000000d0: 66b4 4a9b d465 191c 2a74 851b 366d a019
000000e0: 8031 2498 e15c 839d a874 751c 20c3 f71a
000000f0: bc20 ad9d caa1 6c9b f933 199c 3a21 291e
00000100: 4dac f9a7 00d9 d49b 529e ee1d 9560 b19c
00000110: 98d7 f41a 9319 d29a 862e ab1a caf2 5f1a
00000120: 5546 9bb9 5c28 3aba 9223 1db9 de73 d9b8
00000130: 4ca6 c138 901f deb5 5c1c 67b8 9e12 6fb7
00000140: c8a4 28b7 c64b 00bb 08b7 1abb d066 5038
00000150: 6a04 a0b9 507a 19b6 c5e3 e2b8 aff0 603a
00000160: 9dea a53c d822 2537 72a0 dfb7 4aae 3c37
00000170: d033 dd36 3cf5 19b9 2c6c 4838 1c29 efb7
00000180: 9183 263a b425 b638 6caa 98b8 324a 7eba
00000190: 03ac 8ab8 4967 fcb8 b3a2 86b8 fc9d 5fb8
000001a0: 326c b3b7 1284 8aba 7a6b a5ba 66cc 12b9
000001b0: 12a3 a93a d177 8038 b8f8 0d3a 548f 083b
000001c0: 9fdc 133c e0ec 9b39 e038 3ab9 be03 20b9
000001d0: 9b6b c736 4489 7938 e5fc 0db9 ccc2 7bb8
000001e0: 89c4 0800 abc0 0a80 c8b7 0100 2e2d 1c01
000001f0: bc4a 0a00 bafe 0980 43f7 0580 4f67 0680
00000200: 791b 0a80 ade2 0780 a86b 0500 5efa 0680
00000210: 48c3 0180 d037 0b00 b4f8 0200 f009 0100
00000220: 3d29 0880 24a2 0180 2b76 0480 7bcf 0880
00000230: 0a54 0380 7154 0380 9162 0300 9718 0080
00000240: 05bd f33b 5d58 863b 60bb b438 01c6 67bb
00000250: 33f3 ecb9 331c 4fba 1920 05ba 5a6d 0db9
00000260: 4ff4 93b8 4185 4f3b 7c22 e93a 5f97 57ba
00000270: 036e 353c f600 ae39 76b3 1a3b f34b 423c
00000280: 6518 473d 4c90 cf3a 8a48 88ba 83e9 80ba
00000290: 05b4 02b8 2179 543a 89a7 83ba a040 8bb9
000002a0: ac98 e8b9 c6ee 40ba e127 0ab9 8052 e3b8
000002b0: fc7d 8b38 064e 5536 039d 34b7 58b0 3cb7
000002c0: 5650 40b7 1972 04bb 4297 30bb 144d cd37
000002d0: 0aed b939 f1be 7236 2ce2 1ab8 3268 9b3a
000002e0: 67e3 063c 30e0 0fb6 64c7 15b7 6683 0ab8
000002f0: 4883 c6b7 e07a 0bb9 2f64 9f37 22b1 c2b7
00000300: 8bf9 c9ba b54e 0aba f27d 0bb8 6f1c 033a
00000310: c277 e638 a171 3338 1078 9c36 a956 3038
00000320: 98b2 1237 7d86 bcba f4d4 efba 594b 9c37
00000330: a0f5 b1b5 20bd 23b7 ecec b3b9 1fb0 90ba
00000340: 0f27 503c 56f9 1cb9 0a17 6238 0872 8038
00000350: 8b1a fd36 2d06 02b9 90b5 ea38 e4f5 2136
00000360: 64a3 02bb ca04 85ba 60d3 aeb6 96e2 b639
00000370: eef5 af38 d816 6938 fe6c 25b7 43c9 0bb6
00000380: 2210 73b6 770d ceba c41d f7ba 2c6f a536
00000390: 5e7c 78ba bcb0 78b7 fa93 88b9 24c0 f0ba
000003a0: 3382 9e3b af96 01b9 7eff 5e38 ee24 1a38
000003b0: 464a 20b6 7c6b 2cb8 4e37 1c38 072c ab37
000003c0: c213 873d 4dd4 783d 0255 fc39 afd7 413d
000003d0: e1fa 3c3c d60c 1b3c 267c 243c c435 833b
000003e0: e4da d93a b927 c03d 7966 043e 14ac 6e3c
000003f0: 6fb1 0cbe 81a7 adbb cf36 16bd 71df 37be

bias f4 [40]
9.098181e-06 -1.4787042e-31 1.1670563e-22 -0.00014767352 1.0937445e-05 2.6541e-40 4.7230536e-05 -0.00012807382
2.919948e-05 -5.836982e-05 0.0008059378 -0.00011040112 0.004266904 -3.0605288e-06 -2.6647086e-07 -5.2685532e-21
-8.664091e-05 -7.66058e-13 -0.0002982544 7.894283e-05 -3.6853533e-05 -1.714362e-09 -5.2376974e-05 7.166406e-08
-6.759641e-06 1.7317702e-13 2.6972102e-05 -5.0375e-41 8.657401e-15 4.632547e-05 -0.00086412067 2.37415e-29
0.003980113 9.200042e-14 3.548024e-33 0.0012512008 0.004062657 1.6511414e-22 -3.2472913e-10 3.9098187e-14
00000000: 64a4 1837 60f2 3f8c a516 0d1b cfd8 1ab9
00000010: f87f 3737 dbe3 0200 6719 4638 8e4b 06b9
00000020: 68f1 f437 1ed2 74b8 9245 533a 2687 e7b8
00000030: 63d1 8b3b 7c63 4db6 7a0f 8fb4 520a c79d
00000040: fcb2 b5b8 4ca0 57ab 075f 9cb9 1c8e a538
00000050: 2e93 1ab8 c09e ebb0 59af 5bb8 bce5 9933
00000060: e0d0 e2b6 e1fa 422a 2642 e237 6d8c 0080
00000070: 37f5 1b28 984d 4238 2886 62ba 75c4 f00f
00000080: 9c6b 823b a22a cf29 1061 9309 55ff a33a
00000090: 0920 853b 5a9c 471b 9085 b2af 2415 3029

weight f4 [18, 40]
0.0015241572 -6.987358e-26 -2.867078e-18 0.008921018 0.00027791387 7.8991e-41 -0.0049354695 0.0004974288
0.004006061 0.00021867226 -0.013363972 -6.235399e-05 -0.013517747 -0.00019649201 2.0751993e-06 -1.2063709e-14
0.0013243608 -1.2068082e-09 -0.0005424208 0.001566769 -0.00023870096 -1.3282709e-05 0.004042169 -2.7011283e-05
0.0017754601 2.1960864e-11 0.0034383228 -1.3230407e-37 -4.224814e-10 0.0018494007 0.008844922 -1.1492838e-25
-0.015735338 1.7685198e-12 -3.0061951e-31 -0.008436002 -0.016029768 -2.5083771e-21 4.216716e-08 -1.6549187e-10
0.0013889936 1.5541058e-25 4.2508533e-19 0.0028708698 0.0017710683 -7.7643e-40 0.00010839299 0.00039754185
0.001227472 8.328933e-05 -0.018390877 -0.0006084396 -0.018593386 0.00043417755 5.793706e-06 -5.221715e-15
0.00094708975 2.358422e-10 -0.00089819694 0.0016324368 -0.00065073924 1.6187398e-05 0.0041056825 -5.1419443e-05
0.0007405665 -1.042641e-11 0.0013260251 -2.1327449e-37 1.5934422e-10 0.0031801683 0.012169352 1.5261128e-24
-0.021585695 9.183099e-12 -3.9757106e-32 -0.012061522 -0.021888036 -2.1634162e-21 5.638958e-08 5.322166e-10
0.0027683917 -5.807187e-26 -2.9401064e-18 0.0034925817 0.001449377 6.33589e-40 0.0024309498 0.0013216366
0.0022277464 0.0011653509 -0.026962437 0.00032028198 -0.028096918 8.15755e-05 7.129811e-07 -2.663826e-14
0.0014318234 -1.1005858e-09 -0.0005903537 0.0026817448 -0.00031520496 -3.669337e-05 0.007115895 6.1736326e-05
0.0023191648 1.0803068e-10 -0.0055196187 5.6266287e-38 -1.4794505e-09 0.0055804807 0.019687237 -1.85816e-24
-0.03233168 -1.8197496e-12 2.7190045e-31 -0.018439427 -0.032813203 -5.7940504e-21 9.0372126e-08 7.762185e-11
0.0029843624 -2.7549112e-26 -3.015413e-17 0.0049315603 0.0036042351 -9.48559e-40 0.0029792762 0.0021672894
0.0022200872 0.0018197761 -0.021751365 0.0009674806 -0.021863129 0.000102658145 -5.7669345e-06 1.3780066e-14
0.003294253 -4.0756834e-08 -0.00024355874 0.0032098277 -3.317439e-05 3.5422668e-06 0.004367277 0.000100288016
0.0033300084 -9.4083005e-12 0.001403463 -3.5924136e-38 1.0479323e-09 0.0045430604 0.015360089 -1.9885983e-25
-0.02556905 -6.1350517e-12 -2.9050305e-31 -0.013741942 -0.025905387 -9.700109e-22 1.508088e-07 3.486685e-10
-9.78195e-40 -1.58041e-40 1.018284e-39 -5.4424e-40 -2.7308e-40 9.95037e-40 4.97087e-40 -9.40749e-40
-4.4816e-40 -8.3447e-40 6.93375e-40 6.7609e-40 1.089071e-39 2.9901e-41 -4.87297e-40 -5.63763e-40
-1.221906e-39 -9.26208e-40 -5.66098e-40 -3.62306e-40 2.3292e-41 -7.95841e-40 -3.53189e-40 1.1623e-40
-8.783e-40 8.754776e-39 -4.58426e-40 1.22754e-40 -5.63576e-40 -1.74494e-40 -8.3304e-40 -2.6779823e-38
4.70204e-40 -9.7387e-41 6.71613e-40 -2.88816e-40 -3.00759e-40 5.86159e-40 -9.6262e-40 -1.2109677e-38
3.0955728e-12 -2.3066372e-34 3.773753e-27 -4.737751e-11 -2.3539625e-11 2.43191e-40 -2.4029874e-09 -5.7578157e-12
3.7042622e-10 -4.8328047e-12 -6.0896834e-12 -2.2380873e-12 -6.6075144e-12 1.9169761e-12 6.129432e-14 4.1236615e-24
9.040679e-10 6.0023436e-19 -8.37627e-12 -1.1950087e-13 -2.2980168e-12 2.5840238e-14 -1.6049191e-12 2.5472116e-13
-9.368746e-12 7.078834e-20 -1.838561e-10 -5.51206e-40 1.38261155e-17 -3.9613396e-11 6.7320242e-12 -1.01535485e-32
-1.1304822e-11 -8.8823284e-21 -4.683068e-39 -5.3572372e-12 -9.0332585e-12 4.1616192e-29 -2.4287373e-16 4.91807e-18
-0.00070059334 -6.233522e-26 2.5977746e-16 -0.00023521627 -0.0005476114 -8.52697e-40 0.00036352887 0.000106929794
0.00045828722 0.00014580853 0.16381112 -0.00090287835 0.16998172 0.0019713026 0.0006553245 -5.961706e-15
00000000: 3bc6 c73a a5ff ac95 928d 53a2 7629 123c
00000010: f8b4 9139 32dc 0000 b8b9 a1bb e265 023a
00000020: 4645 833b 634b 6539 90f4 5abc 0bc4 82b8
00000030: 8a79 5dbc 6c09 4eb9 a743 0b36 0a52 59a8
00000040: 2d96 ad3a cadc a5b0 3e31 0eba 0b5c cd3a
00000050: cd4b 7ab9 cdd8 5eb7 2c74 843b 4a96 e2b7
00000060: 8eb6 e83a 782b c12d 7c55 613b 3d15 3482
00000070: f942 e8af 9767 f23a 4bea 103c 4246 0e96
00000080: 65e7 80bc a4e5 f82b fc1c c38c 2837 0abc
00000090: dc50 83bc 1287 3d9d 481b 3533 d2f5 35af
000000a0: e40e b63a 9463 4016 14ed fa20 3425 3c3b
000000b0: 3123 e83a 5f74 0880 0b51 e338 2a6d d039
000000c0: 20e3 a03a 9eab ae38 77a8 96bc b17f 1fba
000000d0: 2851 98bc 53a2 e339 8e67 c236 d221 bca7
000000e0: 1e46 783a d7a7 812f fa74 6bba 7df7 d53a
000000f0: 5f96 2aba 2cca 8737 f688 863b 35ab 57b8
00000100: 9422 423a 606c 37ad 05ce ad3a a825 9182
00000110: 6933 2f2f 5f6a 503b f661 473c 8e27 ec17
00000120: 7cd4 b0bc 008d 212d 426e 4e8b b19d 45bc
00000130: 8a4e b3bc 8e76 239d 0031 7233 6a4b 1230
00000140: e86d 353b 6cc7 8f95 0af1 58a2 cce3 643b
00000150: 06f9 bd3a 30e6 0600 9250 1f3b c43a ad3a
00000160: 62ff 113b b0be 983a 54e0 dcbc 85eb a739
00000170: 822b e6bc 8313 ab38 b063 3f35 a5ef efa8
00000180: 05ac bb3a 6c43 97b0 f7c1 1aba 36c0 2f3b
00000190: 1842 a5b9 35e7 19b8 742c e93b 7078 8138
000001a0: 21fd 173b de8f ed2e ebdd b4bb e12b 9901
000001b0: 8955 cbb0 77dc b63b 2147 a13c a7c4 0f98
000001c0: 396e 04bd b20d 00ac 3679 b00c 480e 97bc
000001d0: 2367 06bd 9ee4 da9d 9a12 c233 38b1 aa2e
000001e0: 4b95 433b a66a 0895 b70f 0ba4 ed98 a13b
000001f0: 0835 6c3b 3254 0a80 f63f 433b 1509 0e3b
00000200: e27e 113b 8e85 ee3a eb2f b2bc 869e 7d3a
00000210: 4e1a b3bc 2c4a d738 9781 c1b6 563d 7828
00000220: 65e4 573b 9d0c 2fb3 cd63 7fb9 f95b 523b
00000230: bb24 0bb8 aeb7 6d36 601b 8f3b b851 d238
00000240: 453c 5a3b 3883 25ad 67f4 b73a f096 4381
00000250: d706 9030 f4dd 943b e2a8 7b3c 322d 7696
00000260: 2f76 d1bc a2db d7ac 198c bc8c e225 61bc
00000270: 8937 d4bc 7b95 929c 02ee 2134 bbae bf2f
00000280: cfa6 0a80 8eb8 0180 9016 0b00 1fed 0580
00000290: 3cf9 0280 c2d5 0a00 ad69 0500 6d3e 0a80
000002a0: 4ae1 0480 2a16 0980 d98c 0700 aa5c 0700
000002b0: e3db 0b00 5a53 0000 634e 0580 8b23 0680
000002c0: 2d4e 0d80 e415 0a80 0d2a 0680 f6f1 0380
000002d0: ee40 0000 7baa 0880 8cd8 0380 0044 0100
000002e0: 5890 0980 c154 5f00 e8fd 0480 3056 0100
000002f0: 0523 0680 6be6 0180 2d12 0980 a0cd 1181
00000300: bd1e 0500 7a0f 0180 2f50 0700 1a25 0380
00000310: 6546 0380 f961 0600 657b 0a80 dadc 8380
00000320: e2d4 592c 664d 9987 677e 9513 565e 50ae
00000330: 860e cfad eba5 0200 cd21 25b1 cb95 caac
00000340: dba4 cb2f 090a aaac fe42 d6ac cc7d 1dac
00000350: 337b e8ac 2ce5 062c c505 8a29 c486 9f18
00000360: 1f82 7830 6d28 3121 5e5b 13ad c88b 06aa
00000370: 64b5 21ac 88bf e828 4edf e1ab 3065 8f2a
00000380: 15d1 24ad ed24 a71f e426 4aaf 8a00 0680
00000390: fc0b 7f23 b838 2eae afdc ec2c 86e1 528a
000003a0: 64e0 46ad 4ec8 279e 7dfe 3280 b47d bcac
000003b0: 2eea 1ead e804 5310 d601 8ca5 dc71 b522
000003c0: 06a8 37ba a455 9a95 63c0 9525 63a4 76b9
000003d0: 948d 0fba f948 0980 0598 be39 7f3f e038
000003e0: 4546 f039 2ee4 1839 1abe 273e 24af 6cba
000003f0: b00f 2e3e f830 013b 15ca 2b3a 08cb d6a7

bias f4 [18]
0.00029569713 -4.612352e-06 -1.4291192e-05 7.381507e-05 8.55497e-40 -6.9266695e-13 0.007140084 0.00028054093
0.00018974199 0.00018956991 -0.0010577594 -5.264535e-05 0.00702496 -6.751595e-07 0.00040166292 -3.2845524e-05
0.00010367552 -7.383163e-05
00000000: cc07 9b39 cdc3 9ab6 34c4 6fb7 2acd 9a38
00000010: c750 0900 eaf7 42ab 5ef7 e93b 9115 9339
00000020: 7af5 4639 49c7 4639 84a4 8aba 84cf 5cb8
00000030: a331 e63b 9c3c 35b5 4996 d239 9dc3 09b8
00000040: 5f6c d938 0ed6 9ab8

weight f4 [1, 18]
-0.021485478 -0.029988673 -0.04783563 -0.036955792 6.52279e-40 -1.217411e-10 0.3828252 -0.05950854
-0.07741196 -0.010138465 -0.3084725 -0.07288278 0.3870216 -6.371578e-05 0.124355115 -0.09562892
-0.033672784 -0.047874562
00000000: 5002 b0bc ceaa f5bc 4bef 43bd f55e 17bd
00000010: 4a1a 0700 13db 05af aa01 c43e 3abf 73bd
00000020: 298a 9ebd ce1b 26bc 1cf0 9dbe 9143 95bd
00000030: b227 c63e 269f 85b8 e5ad fe3d 18d9 c3bd
00000040: 79ec 09bd 1e18 44bd
