models/model2.pth (torch, 10750 bytes, 5 tensors)

weight f4 [40, 24]
0.000370538 0.0005004788 -2.8120776e-05 1.7105442e-05 1.1063725e-05 -2.1867221e-05 -5.006209e-06 -1.18146e-06
-2.5049388e-07 0.001131487 0.0007528689 3.5383716e-06 0.00018492641 7.859599e-06 -1.8497487e-05 9.6149735e-05
0.004940134 -3.2839664e-05 1.5853228e-05 5.3987483e-06 -4.5036478e-07 6.611309e-06 8.538887e-06 -6.9321163e-07
0.0016254646 0.0008548035 4.5084358e-10 -1.4433016e-07 -1.2460873e-08 -2.2053786e-08 -8.45405e-09 -4.994338e-09
-5.7690244e-09 -0.0018047 -0.0006129161 -2.5447305e-08 0.0065453886 8.106224e-09 9.0989126e-08 0.0028831589
-0.0012499304 6.016422e-08 -2.6011968e-08 -1.9978762e-08 -5.734458e-09 2.1175314e-08 -2.0086437e-08 -6.8500716e-09
0.0020311018 0.00058079965 5.8218036e-05 -0.00088544056 -0.00014338778 -0.0001932736 -0.0001473006 -2.1790722e-05
-4.1622472e-05 -0.001085035 -0.0019995405 -0.00015593205 0.0027875565 0.000100658224 0.0005499461 0.0038708644
0.00042662237 0.00034671658 -0.00023196534 -0.00025787143 -1.4605102e-05 0.0001883502 -0.00024495347 -9.132556e-05
0.0013345035 0.0009877159 4.3214408e-05 -0.00050582574 -0.0001091321 -0.00012980122 -0.00010327561 -4.0835283e-05
-7.4472973e-06 0.0011232881 0.0006530427 -0.00013956772 0.0015823806 6.1464416e-05 0.0003077667 0.0014749704
0.0034189515 0.00022047859 -0.00013639023 -0.00012470437 -1.9708119e-05 0.0001548701 -0.00016721059 -3.928431e-05
3.1029657e-08 1.3558999e-08 7.532207e-10 -1.2427702e-08 -3.2942016e-09 -3.1131167e-09 -2.2406483e-09 -8.629004e-10
-2.4091323e-10 -1.16223875e-08 -2.7968929e-08 -3.3245762e-09 4.342335e-08 1.7012823e-09 7.588728e-09 5.5505858e-08
-0.0010539892 4.6858633e-09 -2.7417593e-09 -2.8441958e-09 -2.3387775e-10 3.4293777e-09 -3.4996888e-09 -1.6346823e-09
0.05031435 -0.0950995 -0.004992426 -0.20367494 -0.018155402 -0.03793881 -0.019662261 -0.007243601
-0.0039852783 -0.040772617 -0.011027702 -0.03428789 0.015142622 0.01810489 0.1207022 0.3768647
-0.0004445076 0.075708374 -0.049608625 -0.04607767 -0.0051310565 0.027117694 -0.04652899 -0.011772114
-1.1479927e-31 -1.2736681e-32 2.9456304e-34 -8.0139364e-33 -1.2994917e-33 -1.880518e-33 -2.2037966e-33 -3.1535869e-34
4.3240525e-35 1.2457062e-32 -9.34179e-33 -2.2870343e-33 -6.4312824e-32 4.4893973e-33 4.9110358e-33 -2.1550855e-31
-1.6478605e-25 3.1289514e-33 -3.4782885e-33 -1.5907186e-33 -7.045678e-34 -2.2325338e-33 -2.7896808e-33 -3.966086e-34
2.1471843e-19 4.4459646e-20 1.7501954e-21 -2.8491092e-20 -5.386942e-21 -3.388769e-21 1.0762512e-21 -2.2189815e-21
-1.5472799e-21 -9.553025e-21 5.002824e-21 -1.1166475e-20 1.5241347e-19 -2.8866406e-21 2.181831e-20 2.3296834e-19
-4.4135114e-13 2.3465731e-20 -1.2244663e-20 -5.3240757e-21 1.8563225e-21 -1.3951742e-20 -7.3370945e-21 -3.033848e-21
-1.1510786e-07 -4.195706e-08 -7.412714e-09 5.000167e-08 7.454528e-09 9.7840624e-09 9.703795e-09 4.238161e-09
2.6083464e-09 3.427702e-08 9.633741e-08 1.0932317e-08 -5.6751213e-07 -6.6549686e-09 -3.237346e-08 -2.1508556e-07
-0.0003632545 -1.8845382e-08 1.1988071e-08 1.7872235e-08 1.8071424e-09 -1.6464018e-08 1.7107931e-08 4.678796e-09
0.00550476 0.0015669798 0.00014145588 -0.002362792 -0.00034431682 -0.00031277526 -0.00026890758 -0.00013371596
-7.723984e-05 -0.002259132 -0.0042798156 -0.00036012675 0.0062248823 0.00022605094 0.0014135166 0.009045155
0.001732832 0.000856294 -0.0004009752 -0.00038692864 -9.26549e-05 0.00038588516 -0.0003748445 -0.00021217567
0.00037904066 0.00040344484 -2.2366094e-06 -0.00010180904 -1.8865167e-05 1.4158049e-05 -1.9784926e-05 2.0795533e-06
2.7701924e-07 0.0007125102 0.00058348174 -1.8233213e-05 0.0007380483 1.390514e-05 -3.4203194e-06 0.00031422314
00000000: c544 c239 9032 033a e8e4 ebb7 a87d 8f37
00000010: 569e 3937 806f b7b7 02fb a7b6 a892 9eb5
00000020: 9e7b 86b4 674e 943a 2d5c 453a c374 6d36
00000030: cee8 4139 b8dc 0337 0d2b 9bb7 ffa3 c938
00000040: d9e0 a13b 52bd 09b8 8cfc 8437 e526 b536
00000050: aac9 f1b4 b6d6 dd36 3e42 0f37 2415 3ab5
00000060: 8b0d d53a e414 603a 98da f72f 2cf9 1ab4
00000070: 8013 56b2 ca70 bdb2 4e3d 11b2 a99a abb1
00000080: e038 c6b1 af8b ecba 1aac 20ba 3797 dab2
00000090: b37a d63b 8d43 0b32 cd65 c333 61f3 3c3b
000000a0: b4d4 a3ba a133 8133 ec70 dfb2 c39d abb2
000000b0: d308 c5b1 02e5 b532 8b8a acb2 de5d ebb1
000000c0: 3c1c 053b ce40 183a 242f 7438 e91c 68ba
000000d0: 5d5a 16b9 7da9 4ab9 b474 1ab9 38cb b6b7
000000e0: ca93 2eb8 bc37 8eba b90a 03bb b181 23b9
000000f0: 70af 363b 7918 d338 422a 103a 54ae 7d3b
00000100: 49ac df39 83c7 b539 b93b 73b9 eb32 87b9
00000110: 6f08 75b7 df7f 4539 196d 80b9 0986 bfb8
00000120: 82ea ae3a 3f76 813a 1e41 3538 6499 04ba
00000130: dadd e4b8 401b 08b9 ac95 d8b8 8d46 2bb8
00000140: cce3 f9b6 4b3b 933a f430 2b3a ed58 12b9
00000150: e267 cf3a 75e6 8038 bf5b a139 cb53 c13a
00000160: 7d10 603b 4530 6739 f903 0fb9 13c3 02b9
00000170: dd52 a5b7 a064 2239 4055 2fb9 35c5 24b8
00000180: 7845 0533 1cf1 6832 320b 4f30 9d81 55b2
00000190: 3560 62b1 87ee 55b1 e7f9 19b1 3831 6db0
000001a0: 8671 84af cdab 47b2 5340 f0b2 9076 64b1
000001b0: 7a80 3a33 8dd2 e930 945f 0232 5665 6e33
000001c0: 0226 8aba 4a01 a131 8a69 3cb1 9f73 43b1
000001d0: 5e93 80af 40aa 6b31 2d7f 70b1 45ab e0b0
000001e0: 6b16 4e3d 87c3 c2bd 8197 a3bb 2a90 50be
000001f0: a3ba 94bc ba65 1bbd c012 a1bc bb5b edbb
00000200: f096 82bb 3001 27bd 89ad 34bc 7571 0cbd
00000210: c318 783c b550 943c b732 f73d 69f4 c03e
00000220: cd0c e9b9 fe0c 9b3d 6a32 4bbd f0bb 3cbd
00000230: 6c22 a8bb ed25 de3c 2f95 3ebd d3df 40bc
00000240: 9a04 158c e843 848a 4ec5 c307 6571 268a
00000250: 44ea d788 323a 1c89 9215 3789 8097 d187
00000260: f4e7 6506 8d5c 810a 7a05 428a d7ff 3d89
00000270: 34f7 a68b 767b ba09 17ff cb09 80df 8b8c
00000280: c9fe 4b96 b8f8 8109 827b 9089 d826 0489
00000290: 0022 6a88 be78 3989 f3c1 6789 bacb 0388
000002a0: aa7e 7d20 6af4 511f b43d 041d 9e8b 069f
000002b0: 4e83 cb9d 2a06 809d 74a3 a21c 58a9 279d
000002c0: 7ed1 e99c 9873 349e 5800 bd1d c3ed 529e
000002d0: 25f0 3320 c01b 5a9d 7011 ce1e 2e85 8920
000002e0: 6775 f8aa a8a0 dd1e 8f4b 679e 4d23 c99d
000002f0: 8042 0c1d 3ec5 839e 0398 0a9e 283b 659d
00000300: 3731 f7b3 4634 34b3 ecb2 feb1 6bc1 5633
00000310: 5c11 0032 c316 2832 beb5 2632 429f 9131
00000320: 843e 3331 fb37 1333 0de2 ce33 d7d0 3b32
00000330: 2357 18b5 b9a9 e4b1 ff0a 0bb3 45f2 66b4
00000340: 3273 beb9 6fe1 a1b2 18f4 4d32 7685 9932
00000350: 2c5f f830 c26c 8db2 bdf4 9232 20c3 a031
00000360: 4661 b43b 1e63 cd3a c653 1439 12d9 1abb
00000370: 6c85 b4b9 fcfb a3b9 2afc 8cb9 1b36 0cb9
00000380: d3fb a1b8 f20d 14bb b23d 8cbb 65cf bcb9
00000390: 19fa cb3b 1608 6d39 bf45 b93a 2132 143c
000003a0: 3220 e33a eb78 603a fb39 d2b9 afdc cab9
000003b0: b84f c2b8 a150 ca39 c786 c4b9 797b 5eb9
000003c0: fab9 c639 7385 d339 a818 16b6 5082 d5b8
000003d0: a340 9eb7 5c88 6d37 cef7 a5b7 748e 0b36
000003e0: 3cb9 9434 c0c7 3a3a ccf4 183a 87f3 98b7
000003f0: 9579 413a 1f4a 6937 a488 65b6 51be a439

bias f4 [40]
-2.0317479e-05 -1.07646794e-10 2.9160987e-05 3.6071877e-05 5.600049e-10 -0.00594644 2.3565966e-34 -3.7744154e-21
-6.3681593e-09 0.00015725047 -3.5670484e-05 -2.7114133e-05 1.256384e-09 -8.181511e-10 -7.475159e-06 1.6739259e-27
-1.0861434e-10 2.1587448e-05 2.6173866e-05 -1.1958347e-32 9.758226e-16 -6.327261e-23 3.5589732e-05 -4.3874427e-16
-3.6880118e-30 -7.48247e-12 1.7863422e-06 6.3840394e-05 -6.524385e-17 3.218304e-05 5.9479487e-12 3.9300488e-13
-2.5145277e-05 3.5637556e-14 0.0030895837 1.4551406e-20 -1.524455e-06 -3.4893426e-05 0.003496683 -4.3156827e-20
00000000: 746f aab7 c2b7 ecae be9e f437 e24b 1738
00000010: d7ee 1930 5bda c2bb 6a9f 9c07 e897 8e9d
00000020: ecce dab1 9ae3 2439 e49c 15b8 2873 e3b7
00000030: 15ad ac30 44e4 60b0 20d3 fab6 409f 0413
00000040: 70d8 eeae b116 b537 f38f db37 7a5d 788a
00000050: 80a1 8c26 d9fb 989a 2f46 1538 3aeb fca5
00000060: 819a 958e 0da2 03ad 40c2 ef35 0de2 8538
00000070: 2c71 96a4 47fc 0638 5c46 d12c f93d dd2a
00000080: 12ef d2b7 4e7f 2029 9d7a 4a3b 246f 891e
00000090: e09b ccb5 885a 12b8 9b28 653b 67cd 4b9f

weight f4 [18, 40]
-0.026333371 0.030931268 0.033544827 -0.012245659 -0.0024663908 -0.14064041 -1.9423088e-28 -6.172939e-16
-0.018739695 0.03623404 -0.042244643 0.013156365 0.00883717 0.00013059525 -0.009220505 -1.9417302e-21
-3.1074259e-09 0.034292202 0.044912398 7.3562253e-31 1.8465451e-10 -4.216836e-19 0.016209172 -3.1878684e-11
-1.1707044e-24 1.7947998e-07 -0.014074057 0.057766974 4.720305e-12 -0.0035924702 -5.9750525e-09 9.919805e-10
0.031655326 3.353196e-08 0.11814553 1.7459963e-16 0.096876 -0.04749463 0.121061385 -1.9170053e-18
0.0036495307 0.0037485098 0.0026391821 0.0049878317 -7.998858e-08 0.08169342 -2.4958102e-28 -1.8689824e-15
-7.97728e-08 0.0036754275 0.00371256 0.0036672342 0.0020153509 -7.83176e-11 0.004842157 2.7730597e-20
-2.1539508e-09 0.002367925 0.005124042 1.8184527e-30 -7.497851e-10 -8.306477e-17 0.0036126159 -6.2567096e-10
8.326662e-24 7.648349e-08 0.03589139 0.0044960896 5.876549e-10 0.005098151 -3.6636976e-08 -7.047703e-07
-0.0003281745 -5.3828387e-08 -0.06732054 -3.4594154e-14 0.0019862445 0.012277851 -0.06723562 7.291697e-18
0.08529468 -0.09148742 -0.112156756 0.12070789 -0.00020194515 -0.23075277 -1.9679659e-28 -7.502967e-16
0.0125229545 0.00030210408 0.059136335 0.1115833 -0.0026235525 0.0017441426 -0.05659759 -1.381882e-21
8.472824e-09 -0.040689256 0.10490509 9.176509e-31 1.4728467e-10 1.34393705e-17 -0.015294435 -2.3276625e-11
-6.086344e-25 1.6934604e-05 -0.04261272 0.058567107 -1.3324102e-11 0.08306869 7.443993e-09 2.3515788e-08
0.07248179 4.5540045e-08 0.19575757 -8.1098513e-16 0.02435015 0.041550264 0.20093349 -2.878277e-19
0.0043420773 0.0062067127 0.002947986 0.0055538607 -9.808959e-08 0.10717389 4.1884017e-28 1.033109e-16
1.4401746e-05 0.0033103742 0.006121701 0.005427621 0.004396861 -1.9804977e-11 0.004801598 1.8660809e-21
1.1588625e-08 0.0038161906 0.0073094894 1.1712585e-30 -3.596201e-10 -1.6434841e-16 0.0033022931 2.62705e-11
1.0488939e-23 2.3055286e-08 0.037848555 0.0060810717 -8.8325666e-11 0.006664021 -4.2471175e-08 -9.1776876e-08
0.0011108575 -3.695979e-08 -0.08692849 -4.745053e-15 0.003416028 0.012110998 -0.08744319 -5.092786e-18
1.490468e-14 9.577996e-19 1.0421071e-15 -9.599337e-15 -5.0295016e-19 -2.0167804e-14 5.8249e-40 -7.6177366e-28
-1.5234326e-19 4.9888017e-15 3.8540948e-14 -3.780984e-15 -8.3065807e-20 2.2474862e-22 2.0140184e-14 5.931251e-33
1.2064592e-20 -4.902547e-15 3.2530717e-14 -8.1813695e-38 8.776195e-23 1.1175131e-12 -1.6838029e-14 -1.7796253e-08
4.8063886e-36 -1.9879892e-12 -2.1381272e-14 -3.808592e-14 3.7260778e-23 -4.036305e-14 -8.518143e-23 1.5671363e-19
-2.5788914e-14 -3.5745777e-20 -1.615788e-14 2.655498e-27 -9.524233e-15 8.0257905e-15 3.0365328e-14 -4.374529e-08
-1.1114291e-15 3.5743237e-20 4.051726e-17 1.7171316e-18 5.721961e-24 6.4272073e-19 -1.481683e-39 8.235809e-30
-7.1643943e-25 4.7007165e-20 -4.458623e-16 -7.0722685e-17 -4.6353727e-24 1.1420258e-26 -1.3933836e-17 3.4949275e-35
1.2023512e-21 -1.0360734e-17 -1.9721828e-15 4.1809e-40 5.327981e-25 4.2152673e-31 -2.20155e-18 2.3623785e-26
1.221487e-22 -4.3749554e-23 -1.4856882e-19 4.7642696e-18 4.001906e-27 1.368964e-19 -3.4373973e-25 1.1049912e-23
-4.3287523e-17 8.403393e-24 -8.2080646e-19 -2.4564826e-30 -7.399956e-16 2.980271e-20 -3.6932102e-20 -2.2263179e-34
0.010305557 -0.026785966 0.10645307 0.09507051 -0.007386308 0.17774606 1.297678e-28 7.4721996e-16
-0.023881845 0.051533006 -0.049878307 0.09222845 0.03361933 0.0013274002 -0.08160227 1.618705e-21
00000000: 15b9 d7bc 9263 fd3c 4d66 093d 04a2 48bc
00000010: 2ca3 21bb 0a04 10be 8637 7691 40ec 31a6
00000020: fd83 99bc 256a 143d b808 2dbd cb8d 573c
00000030: c7c9 103c 65f0 0839 9a11 17bc 86b6 129d
00000040: 6a8a 55b1 fb75 0c3d 10f6 373d 21b9 6e0d
00000050: a007 4b2f 06eb f8a0 19c9 843c 3534 0cae
00000060: 6128 b597 15b7 4034 e096 66bc 109d 6c3d
00000070: ba14 a62c a66f 6bbb 1e4d cdb1 3656 8830
00000080: 04a9 013d c804 1033 49f6 f13d b74c 4925
00000090: ed66 c63d bb89 42bd 08ef f73d 3573 0da2
000000a0: f72c 6f3b 8fa9 753b 21f6 2c3b f770 a33b
000000b0: 30c6 abb3 e14e a73d d630 9e91 a4ac 06a7
000000c0: 904f abb3 71df 703b 6c4e 733b fb55 703b
000000d0: fa13 043b e438 acae f5aa 9e3b 3cf4 021f
000000e0: b404 14b1 302f 1b3b 94e7 a73b c987 130e
000000f0: 7019 4eb0 c988 bfa4 a3c1 6c3b aefb 2bb0
00000100: a20f 2119 3e3f a433 da02 133d ef53 933b
00000110: 8a88 2130 640e a73b c85a 1db3 722f 3db5
00000120: d60e acb9 f030 67b3 5adf 89bd 58cc 1ba9
00000130: a72b 023b 0a29 493c d4b2 89bd 1182 0623
00000140: faae ae3d c25d bbbd 71b2 e5bd b335 f73d
00000150: 3dc1 53b9 744a 6cbe 2578 7991 2042 58a6
00000160: 142d 4d3c b963 9e39 f138 723d c985 e43d
00000170: e8ef 2bbb b79b e43a e0d2 67bd f8d2 d09c
00000180: e08f 1132 c7a9 26bd 7bd8 d63d bae5 940d
00000190: f3f0 212f a2e9 7723 8395 7abc 4dbe ccad
000001a0: fc5c 3c97 c90e 8e37 ad8a 2ebd 10e4 6f3d
000001b0: 6c66 6aad eb1f aa3d 0ec6 ff31 c4ff c932
000001c0: 5571 943d cf97 4333 ac74 483e 24c0 69a6
000001d0: f779 c73c 9c30 2a3d 82c1 4d3e 4be7 a9a0
000001e0: fc47 8e3b ae61 cb3b ff32 413b 29fd b53b
000001f0: 53a5 d2b3 fc7d db3d 5abc 0412 fe37 ee24
00000200: 079f 7137 ddf2 583b 8d98 c83b 2fda b13b
00000210: 8b13 903b d834 aead b956 9d3b 41ff 0c1d
00000220: 5017 4732 0e19 7a3b 7184 ef3b 2d0c be0d
00000230: 08b4 c5af 177b 3da5 496b 583b e813 e72d
00000240: b6e2 4a19 1c0b c632 1607 1b3d ba43 c73b
00000250: ee3a c2ae dc5d da3b 8d69 36b3 df16 c5b3
00000260: 319a 913a b8bd 1eb3 9007 b2bd 64f5 aaa7
00000270: 71df 5f3b 356d 463c 6a15 b3bd 01e4 bba2
00000280: da3f 8628 a558 8d21 f72e 9626 21ed 2ca8
00000290: d771 14a1 caa7 b5a8 bf57 0600 6c6a 7192
000002a0: edda 33a0 93bd b327 b092 2d29 6c39 88a7
000002b0: 3322 c49f 2ada 871b 1a68 b528 e15f f609
000002c0: c9e4 631e 04a2 b0a7 5d81 1229 d3b7 de81
000002d0: 0432 d41a a746 9d2b daa9 97a8 60de 98b2
000002e0: f070 cc04 6ee4 0bac db95 c0a8 1486 2ba9
000002f0: 9c2e 341a 6ec7 35a9 c0f4 cd9a ca03 3920
00000300: 3049 e8a8 fecd 289f 8989 91a8 e663 5213
00000310: c692 2ba8 6d94 1028 d7c0 0829 74e2 3bb3
00000320: 7f2c a0a6 ecca 281f 56da 3a24 6667 fd21
00000330: 8f5b dd18 9bb2 3d21 5422 1080 c40a 270f
00000340: 2eba 5d97 2dfc 5d1f d582 00a6 4e13 a3a4
00000350: 8252 b398 9633 6214 5784 80a3 7dd2 3906
00000360: b6b1 b51c 2f1f 3fa3 5a1c 0ea7 778d 0400
00000370: 9de4 2417 12cb 080d 1b72 22a2 69f5 e914
00000380: 31ab 131b 538f 539a 2c66 2fa0 41c5 af22
00000390: 2688 9e13 669e 2120 bcc3 d496 84bc 5519
000003a0: e3a0 47a4 968b 2219 6242 72a1 264b 478e
000003b0: 0a4a 55a6 44bd 0c1f 2c68 2e9f d6f6 9387
000003c0: a4d8 283c 3e6e dbbc 1104 da3d 54b4 c23d
000003d0: d808 f2bb 1003 363e 0f80 2411 1a5f 5726
000003e0: dca3 c3bc 4614 533d 324d 4cbd 45e2 bc3d
000003f0: 6cb4 093d 29fc ad3a 171f a7bd 9e9c f41c

bias f4 [18]
0.00030423282 0.00036234193 0.00042773603 0.00038775665 -3.0437907e-15 3.6605397e-19 -0.00033804806 0.00023748589
-9.903283e-19 -0.00017757309 0.00031401543 0.0003539296 -3.725051e-05 0.0004201742 -0.00036555654 0.00022976208
0.00030975195 8.644616e-06
00000000: 7081 9f39 b6f8 bd39 c241 e039 d14b cb39
00000010: 0754 5ba7 8314 d820 0b3c b1b9 a205 7939
00000020: 8c25 92a1 ea32 3ab9 70a2 a439 a08f b939
00000030: 6e3d 1cb8 d44a dc39 2ba8 bfb9 4aec 7039
00000040: 3466 a239 5808 1137

weight f4 [1, 18]
0.14254948 -0.11228175 0.22390094 -0.14073697 -2.3020451e-14 -3.0125736e-14 -0.17316233 0.11354804
-7.3371756e-18 -0.0931598 0.15581457 -0.09736291 -0.052394237 -0.0746529 -0.18359083 -0.0150989285
-0.007740461 -0.061075553
00000000: 7ef8 113e f9f3 e5bd 4a46 653e 5a1d 10be
00000010: 8c59 cfa8 9cac 07a9 7751 31be e08b e83d
00000020: d558 07a3 91ca bebd db8d 1f3e 3566 c7bd
00000030: 579b 56bd 9fe3 98bd 3cff 3bbe 7f61 77bc
00000040: b1a3 fdbb 5c2a 7abd
