models/model1.pth (torch, 10110 bytes, 5 tensors)

weight f4 [36, 24]
00000000: ed30 1000 ff04 0980 5153 0d80 4d71 0600
00000010: 5f0d 0700 c3c1 2480 08cd 0280 7289 5301
00000020: 3773 0000 63b4 0400 fe22 0780 4b02 0900
00000030: 2219 0000 51fc 0600 06ca 0400 8c81 0880
00000040: 6e42 0280 93d9 0a00 7019 0180 a36d 0c80
00000050: 8768 0580 9904 0200 4576 0300 925a 0080
00000060: e097 d13c fab4 c33d 8bd1 c23a 6e75 b73d
00000070: c2a5 453c f179 a23c 7dd7 763c b740 da3b
00000080: 6953 893b 63d3 923d f7f8 993d 1a70 843c
00000090: 7a52 8dbd df6e 0dbc fc17 85bd e9cf 74be
000000a0: 0ef6 b839 d768 24bd 4dac dd3c 94c1 ca3c
000000b0: 47dc 8c3b 89e8 7dbc 804f c93c fa8b 163c
000000c0: ee9d c9ba aedf f1ba bbb2 2cb8 8466 a938
000000d0: 30d3 1cb8 5a5a 9d34 5c2d d4b7 3868 67b4
000000e0: 7d8c 8db6 4ddc b8ba 71d3 1cba 4b1e 0338
000000f0: 4e83 0cbb fe2a 8ab6 0b70 a4b8 0434 20bb
00000100: c948 9d3c 4ede fab7 390b b737 9233 9537
00000110: 4caf 99b6 8cff 60b8 cd81 d8b6 8839 3cb7
00000120: b1d6 ac31 c80c f0b3 fceb e7af 70de d031
00000130: 1eeb 0a30 18d8 0530 b2e2 2b2f bb14 7eae
00000140: f2f5 4b2e 7abc 49b3 d21a 8eb2 5ddf 8e30
00000150: 1575 4334 79ef a0af 2197 4bb1 7498 78b4
00000160: b73a 8ab6 0214 1cb0 c1d4 0cb1 6c9a 1eaf
00000170: 1038 1e2c 088d 99b1 e867 982f 2acb 672e
00000180: df21 e439 da7b 8039 e2f2 8535 2569 2a38
00000190: 8e0a b937 5be3 3737 3407 d736 00a6 02b8
000001a0: 9eb6 8cb6 feee 1c39 1b6a 4e3a d3d3 b637
000001b0: 5559 dd38 dc89 7737 d87d 4bb7 e6b8 3139
000001c0: b868 983d a4b8 1ab7 a809 8fb7 8318 6fb8
000001d0: 78e6 90b6 4811 54b6 ec60 3d36 166e b837
000001e0: 3892 ba39 8425 9639 064e adb7 5f2c 89b9
000001f0: af9c 7bb7 d8a5 65b8 9ff1 cf37 bd35 5bb7
00000200: 8110 f4b6 c0a1 7ab9 2a00 eab9 c71d 2fb8
00000210: a230 b739 0530 7837 53ae f538 a664 613a
00000220: d667 233d 8da4 0339 8f4b 6438 c571 4ab8
00000230: 9961 dab6 c7d4 98b7 8457 b236 4c6a b837
00000240: 4d5d f12e 2cff a22f 933b 122e c42a ccaf
00000250: d54b a12d dbc8 352e f103 aa2d 9b5d 3e2d
00000260: 471e 802c 3028 d9b0 0113 ab30 62c1 3aae
00000270: 4ef5 24b1 5a89 89ad 8816 02af 5ea8 d62f
00000280: 2548 99b3 93ec 9c2f e83e 51ad 2d2f 6cae
00000290: e6bc 77ad 1d84 a42d 068a 23ae fc32 3fae
000002a0: e599 313a 55b5 27b9 6a0d 1eb8 5722 ecb9
000002b0: 9878 3db8 7753 93b8 3f22 c8b8 c52a c7b7
000002c0: 0247 59b7 be8d 97ba c9fe 99ba 5778 88b8
000002d0: 9643 6a39 6bd7 0c38 1046 b539 ca2e be3a
000002e0: 66a5 823c 953c 6e39 7fcb d8b8 5db3 f8b8
000002f0: dd2f 76b7 0e14 b438 ee7c c1b8 4795 0cb8
00000300: 399b fc3c ee20 da3d a72c d63a e394 b13d
00000310: b3f0 3c3c 4833 8e3c ea97 723c 0bf1 cd3b
00000320: 2e4a 643b 8238 983d 1fc1 a63d dba6 7a3c
00000330: 03a6 bebd cc2c 0dbc 9b1a 7ebd 3bfb 73be
00000340: b25d 2b3a eb10 1abd ca60 d73c fc92 c53c
00000350: 2c61 903b 3927 50bc e9da c13c 1fa6 0e3c
00000360: 7214 9caa 46cf ea29 9660 da26 5288 d229
00000370: 4d81 6d28 8d4f f9a7 b7d7 7228 75f0 b227
00000380: 26be b927 d6f6 622a ca87 a42a d263 0d29
00000390: 2ac8 0bab baa9 c9a7 1a10 82a9 e854 beaa
000003a0: 94a1 8eb7 a5eb cda8 2439 2329 c2b2 7229
000003b0: c377 5a27 84e6 30a8 8bb9 2529 e054 1e28
000003c0: 6406 55a6 a655 32a6 5000 f3a3 5fc6 4225
000003d0: 4b6f 3223 4876 9823 8cd3 d823 ba9f 5ca2
000003e0: d3e4 55a3 7efe f2a6 d49a a1a7 f269 6623
000003f0: bb74 8aa7 fe3a d0a2 96ca 4ca4 e8d9 aaa6
1.486919e-39 -8.28312e-40 -1.22375e-39 5.91658e-40 6.47645e-40 -3.375586e-39 -2.57222e-40 3.8853192e-38
4.1331e-41 4.32053e-40 -6.55401e-40 8.27342e-40 9.016e-42 6.41527e-40 4.39814e-40 -7.81157e-40
-2.07501e-40 9.96406e-40 -1.00961e-40 -1.141356e-39 -4.96675e-40 1.8532e-40 3.17934e-40 -3.249e-41
0.025585115 0.09556003 0.0014863474 0.08957945 0.0120634455 0.019833537 0.015066025 0.0066605466
0.0041908515 0.07169225 0.075181894 0.016166735 -0.06900497 -0.008632391 -0.06498715 -0.23907436
0.0003527854 -0.040139046 0.027059698 0.024750508 0.00429872 -0.015497335 0.024574041 0.009188646
-0.001538215 -0.0018453503 -4.117445e-05 8.077643e-05 -3.7389982e-05 2.9309268e-07 -2.5293491e-05 -2.1551466e-07
-4.2184824e-06 -0.0014103741 -0.0005982435 3.1261046e-05 -0.0021440568 -4.1177254e-06 -7.840999e-05 -0.0024445066
0.019199746 -2.9905841e-05 2.1820526e-05 1.7786198e-05 -4.5801626e-06 -5.364376e-05 -6.4524124e-06 -1.1219068e-05
5.0302664e-09 -1.1178196e-07 -4.2186332e-10 6.078885e-09 5.053823e-10 4.8692206e-10 1.5632898e-10 -5.7771326e-11
4.63753e-11 -4.6970378e-08 -1.6543172e-08 1.0395343e-09 1.8203384e-07 -2.9273986e-10 -2.9626295e-09 -2.3152262e-07
-4.119556e-06 -5.67809e-10 -2.0493618e-09 -1.4424878e-10 2.2484271e-12 -4.4689195e-09 2.772247e-10 5.2703765e-11
0.00043512785 0.0002450634 9.97996e-07 4.0629082e-05 2.2058633e-05 1.0960585e-05 6.408338e-06 -3.1149015e-05
-4.1935846e-06 0.00014966351 0.00078740873 2.1794729e-05 0.000105547406 1.4754445e-05 -1.2129043e-05 0.00016948915
0.074418485 -9.222105e-06 -1.7051425e-05 -5.700487e-05 -4.3183645e-06 -3.160052e-06 2.821961e-06 2.1985772e-05
0.00035585626 0.0002863818 -2.065954e-05 -0.00026163735 -1.4997247e-05 -5.475231e-05 2.4788837e-05 -1.3065929e-05
-7.273688e-06 -0.00023902114 -0.0004463208 -4.1750984e-05 0.00034940714 1.4793132e-05 0.00011714981 0.00085980666
0.039893948 0.00012554433 5.4429805e-05 -4.826651e-05 -6.508268e-06 -1.8218894e-05 5.3150015e-06 2.1984008e-05
1.0975985e-10 2.964894e-10 3.324947e-11 -3.713777e-10 1.8337257e-11 4.133303e-11 1.9328513e-11 1.0821034e-11
3.6413403e-12 -1.580025e-09 1.2447289e-09 -4.2463262e-11 -2.400458e-09 -1.5636093e-11 -1.1831436e-10 3.9046005e-10
-7.137741e-08 2.854433e-10 -1.18942425e-11 -5.3702088e-11 -1.4082268e-11 1.8703311e-11 -3.71845e-11 -4.3473655e-11
0.0006774946 -0.00015993913 -3.768263e-05 -0.00045039013 -4.5173423e-05 -7.025053e-05 -9.543122e-05 -2.3742565e-05
-1.2950741e-05 -0.0011562628 -0.0011748906 -6.5074004e-05 0.00022341157 3.3579225e-05 0.0003457521 0.0014509794
0.015948009 0.00022720017 -0.00010337587 -0.000118589705 -1.4673887e-05 8.586804e-05 -9.226227e-05 -3.3517626e-05
0.030835735 0.10650812 0.0016340212 0.08670976 0.011531997 0.017358437 0.014806727 0.006284838
0.0034834254 0.07432653 0.08142304 0.0152985705 -0.09309008 -0.008616637 -0.06203709 -0.23826306
0.0006537094 -0.03761379 0.02629127 0.02411794 0.004406115 -0.012704664 0.023663955 0.008706599
-2.7725353e-13 1.0427644e-13 1.5152968e-15 9.349521e-14 1.31841805e-14 -6.9197632e-15 1.3480474e-14 4.966563e-15
5.1553974e-15 2.0158471e-13 2.9226475e-13 3.139487e-14 -4.9660504e-13 -5.5972725e-15 -5.775953e-14 -3.3809695e-13
-1.700296e-05 -2.2861767e-14 3.6242832e-14 5.3889842e-14 3.03185e-15 -9.819948e-15 3.6798293e-14 8.789166e-15
-7.390788e-16 -6.187223e-16 -2.6346245e-17 1.6894028e-16 9.6729665e-18 1.6529967e-17 2.350836e-17 -2.9900118e-18
-1.15952086e-17 -1.6861103e-15 -4.485434e-15 1.249076e-17 -3.8429254e-15 -5.6440973e-18 -4.4407046e-17 -1.1855183e-15

bias f4 [36]
00000000: 48d8 0d00 8252 073b 5da8 4938 f054 3fb0
00000010: 312c 56b8 114d f9b7 88b6 37ad 95a5 2f38
00000020: daad 0f3b 2a6c 8f24 6b81 6da3 e892 3738
00000030: 36f2 7594 bd7d e337 6d79 2ca4 2808 7ab5
00000040: d071 a48f dc8d b3a2 e2ae a1b7 8261 afaa
00000050: 7ca6 c437 e13c 37b7 2a1a 95b7 58d8 10b7
00000060: 0c93 d823 d093 060a 6ff1 0fb6 7e27 0e80
00000070: e3b1 e8b7 39f6 e8ac 8efe d416 b473 fbb6
00000080: f4a2 0138 4285 6cbb cdc9 4787 6d0b df37
1.271449e-39 0.0020648544 4.8078935e-05 -6.96061e-10 -5.1062732e-05 -2.9719e-05 -1.0442876e-11 4.187746e-05
0.0021923692 6.21996e-17 -1.2875201e-17 4.3767417e-05 -1.2417107e-26 2.711906e-05 -3.7399406e-17 -9.3144126e-07
-1.6215488e-29 -4.8668247e-18 -1.9274132e-05 -3.1153904e-13 2.3442546e-05 -1.09218245e-05 -1.7774368e-05 -8.63344e-06
2.3481044e-17 6.479666e-33 -2.1449193e-06 -1.299864e-39 -2.773939e-05 -6.621173e-12 3.4411094e-25 -7.4938525e-06
3.090776e-05 -0.003609017 -1.50304e-34 2.6588992e-05

weight f4 [18, 36]
00000000: a5a0 a881 97f8 a939 a199 dd39 0bd6 9c32
00000010: 9099 bcbb 94d7 b23b 8b79 bbae f82a c2b9
00000020: 275a 7d39 8037 e5af aa2b dda5 0ff9 32bb
00000030: 86a8 a598 44d0 0ebc ecc9 b52c 022a d83b
00000040: f60e 7e8e f916 ea9e 3810 18bb 7aef 4ab2
00000050: 2f32 2bba bde3 89ba 5afe a5bb 8475 09bc
00000060: 970f 5aac da3e 388d 6268 b5bb 3ab5 0500
00000070: ac90 9f3c 80cc 142e e65e c698 171d 78bb
00000080: 722f 033a ec91 ccb8 b4e4 010f 4b54 03bb
00000090: 433e 0a00 2a23 11bd 683e 0f3d e0cd ddb2
000000a0: 00b4 343d 4314 2bbd 1794 7432 b9bc 80bd
000000b0: a846 0ebd ba57 c72d e40a 74a9 a49b 8cbc
000000c0: 5f82 3299 3060 cb3d 4aed 47ad 091a 913d
000000d0: 5e4e 9d12 da27 7a2a b287 62bd 28b8 74b3
000000e0: 42aa 6b3d 83e2 d2bb 001d 3cbd 5aba ed3d
000000f0: 9076 27ad 9088 ae8f 8bb8 8b3d a65f 1302
00000100: 309d 1a3d a8e2 da30 f094 909c 1ca3 813c
00000110: 1acf 17bd 06c4 173d 333a 5e90 2963 efbc
00000120: 6f22 0800 d9e4 04be bc66 cdbd 5333 3035
00000130: 13ec d63c 6de1 9b3d 4785 8c32 ab78 f23d
00000140: 5339 02be 6214 29b1 4398 e629 3107 51bd
00000150: 2c80 0e9a 7ec0 e13c beb9 67ae 6781 fd3c
00000160: 37ad db94 ae6f 8a9f 7c5b 773d e428 a7b4
00000170: 7d0f 9c3d 399f f23d 468c 82bd bd8b 92bc
00000180: 6b89 e8ad 9517 1011 7517 03bd 676c 0404
00000190: 876b ef3c ac03 7732 eb6b c79a d2d0 d23d
000001a0: 840e 673d d1e8 083e 207b 9d0e 3793 10be
000001b0: 5cfd 0200 b478 c3bd dded 80bc 5a2c 47b5
000001c0: 3080 0d3e 259e 5abc 2cb0 fd30 e990 683d
000001d0: 725b bfbd c378 00b0 990f aa29 be8b dd3d
000001e0: c047 ea18 b718 c63d c306 2dae 3f6d 133c
000001f0: 01d5 9a94 8172 b1a0 30e8 b83d a962 5cb4
00000200: 3a99 fabb d8be 06bd 8818 313d 5bd2 b3bd
00000210: 84c1 afad 279b df8f 9bab ae3d 7557 e103
00000220: 5eb6 653d 58c7 08af 3840 5b1c 9327 eabd
00000230: 221a 8ebd 342e ca3d 8462 b511 60dd cebd
00000240: 5ee7 0480 4073 24bd c845 f23b 5538 4034
00000250: 007c 133b 6a74 d33b 8d70 d9b2 be16 573c
00000260: cffa 20bd 4ca7 50af 0a72 ec28 3026 893a
00000270: fb2e 6799 ec6c 323c aa8a 7cad 3cba 1ebd
00000280: 8c83 a893 a1a9 219f 4ff6 01bd 3000 a1b3
00000290: 33db 303d aa6d b63b a247 873c 5633 003d
000002a0: 7a3f 2dad 02b0 c68f 77f0 df3c d1fc 1e03
000002b0: ce1a 163d f4e3 0c31 78e9 899b 2416 433b
000002c0: f62f 4bbc 2dd0 2b3d 7b07 8590 00a7 65bc
000002d0: c3db 0d00 ce92 81bd 9fac 7d3d efe6 5835
000002e0: 68d4 e43d a3bc 99bd 65fb 08b3 96e9 e03d
000002f0: 57be 7dbd c524 2d2f dfd2 6429 4d49 823d
00000300: 16b3 8899 7371 9c3b 6003 ccad 9081 023b
00000310: 624c 8d95 916d 529f f19f 063d d158 f5b3
00000320: 6430 dabc 2770 6abd 1929 f0ba 9c0c 0a3e
00000330: 4707 0dae 84aa 9690 a987 e8bc 77cc 0203
00000340: a5e5 a43c 6c0a 71b1 b048 8b1a cd9e 133d
00000350: 8848 01bd ee37 873d b084 8190 477d 873d
00000360: 030b 0700 d213 00bd 870e 973c eb7b 4934
00000370: c38e 03bd 9bc2 ac3d 2892 80b2 c44e 2dbc
00000380: cad9 fabc 76b4 6e2f 0cef 0229 4f59 bebb
00000390: 875a 1a99 ad57 433b 8c0a f82b 8ce0 8b3d
000003a0: 7489 c512 a7cc 969e db54 afbd 738c 5fb3
000003b0: d1bf 983d 86a2 c43d 7926 cd3c 8b77 343d
000003c0: 6acc 14ad 1065 2210 574b 543c 684d 0002
000003d0: 6c4c cf3d 0cf4 012f 16b8 999b 1ef4 38bd
000003e0: eadb 33bd c8ac 063d 243f 2890 8490 823d
000003f0: fe7c 0d80 7423 1c38 0e0d 56b9 5230 2db1
-6.1943967e-38 0.00032419406 0.00042266867 1.8258126e-08 -0.0057556108 0.005457828 -8.525366e-11 -0.00037034578
0.00024161545 -4.1694292e-10 -3.8366977e-16 -0.0027309095 -4.2821666e-24 -0.008716647 5.1667472e-12 0.0065968046
-3.131512e-30 -2.4785215e-20 -0.0023203027 -1.1812398e-08 -0.000653061 -0.0010520142 -0.0050657215 -0.008389834
-3.0988317e-12 -5.6775032e-31 -0.005536125 5.2419e-40 0.019478165 3.3832936e-11 -5.1277623e-24 -0.0037859136
0.00050043233 -9.754658e-05 6.404238e-30 -0.0020039256 9.4069e-40 -0.035433926 0.034971625 -2.5821407e-08
0.044116974 -0.04176737 1.4236341e-08 -0.06285996 -0.03473535 2.2662639e-11 -5.418833e-14 -0.017164059
-9.2287125e-24 0.09930456 -1.1364529e-11 0.07085044 9.927412e-28 2.2218287e-13 -0.05530519 -5.6978166e-08
0.057535417 -0.0064356937 -0.045926094 0.11607809 -9.519177e-12 -1.7210327e-29 0.06822308 1.0827304e-37
0.037747562 1.5926007e-09 -9.56762e-22 0.015824847 -0.03706274 0.037052177 -4.3826615e-29 -0.029222088
7.47036e-40 -0.12977923 -0.10029361 6.5639796e-07 0.026235616 0.07611356 1.6358753e-08 0.11839422
-0.1271718 -2.4604323e-09 1.0240465e-13 -0.05103225 -2.9468448e-23 0.027557608 -5.268829e-11 0.030945493
-2.218167e-26 -5.863003e-20 0.06038998 -3.1135926e-07 0.07620142 0.118467756 -0.06374411 -0.017888898
-2.6436372e-11 1.1366864e-28 -0.032004792 1.5566301e-36 0.029226078 1.4378127e-08 -8.247882e-23 0.102937356
0.056410328 0.13370062 3.8822053e-30 -0.14118658 2.74559e-40 -0.09544507 -0.015738422 -7.4197817e-07
0.13818431 -0.013343369 1.8458244e-09 0.056778822 -0.09343614 -4.673774e-10 7.552222e-14 0.10817669
6.056003e-24 0.09672683 -3.934165e-11 0.008998214 -1.5634041e-26 -3.0060739e-19 0.09028661 -2.0524989e-07
-0.0076476606 -0.032896847 0.043236285 -0.087803565 -1.9981135e-11 -2.204926e-29 0.08528825 1.3244391e-36
0.056082122 -1.2439949e-10 7.254402e-22 -0.114333294 -0.06938578 0.09872094 2.861748e-28 -0.10100818
-4.50341e-40 -0.040148973 0.0073935725 1.7901887e-07 0.002250433 0.0064530866 -2.5313307e-08 0.013127981
-0.03930169 -1.8976926e-10 2.625072e-14 0.0010463651 -1.1951908e-23 0.010890227 -1.4355331e-11 -0.038751826
-4.2538877e-27 -3.423339e-20 -0.03172904 -7.497181e-08 0.043177795 0.005567272 0.01651365 0.031298958
-9.848006e-12 -1.9592103e-29 0.027336342 4.6722246e-37 0.036646657 2.0502258e-09 -2.2815624e-22 0.0029767836
-0.0124015715 0.04194658 -5.2470776e-29 -0.014016867 1.272697e-39 -0.06326829 0.061932202 8.0802323e-07
0.11173326 -0.07506683 -3.189361e-08 0.10982053 -0.0619491 1.5747322e-10 5.080907e-14 0.06361637
-1.4134403e-23 0.0047742664 -2.3193614e-11 0.001991365 -5.706996e-26 -4.455986e-20 0.032867376 -1.1424857e-07
-0.026634403 -0.057235863 -0.0018322795 0.13481373 -3.2066152e-11 -5.942729e-29 -0.028385 3.843828e-37
0.020129034 -3.507604e-09 5.7606486e-23 0.036040116 -0.03156331 0.066024646 -5.1085966e-29 0.06615692
6.46799e-40 -0.031268902 0.018439544 1.8764665e-07 -0.03211857 0.084355555 -1.4967625e-08 -0.010577861
-0.030621428 2.1710087e-10 2.907314e-14 -0.0058089863 -7.979895e-24 0.0029806898 1.7624387e-12 0.06829938
1.2466333e-27 -1.596651e-20 -0.08561107 -5.204897e-08 0.07458461 0.096013114 0.02504276 0.044059318
-8.458215e-12 3.2026722e-29 0.012957416 9.426169e-38 0.10121998 1.1819185e-10 -2.543069e-22 -0.045154683
-0.0439109 0.03287962 -3.31808e-29 0.063752204 -1.2387e-39 3.7226317e-05 -0.00020413494 -2.520228e-09

bias f4 [18]
00000000: d0b6 2038 7b28 ad39 5b0a 9f3a e4db 703a
00000010: 3d35 d039 7990 1e3a 21ba ab39 deb3 fbb5
00000020: 9b02 6c3a a918 57b9 7fa5 44b8 5598 4635
00000030: e1df 9bba 5e5c 75ba 464b 79ba 4c50 793a
00000040: 9ac8 c9b9 02bd a03a
3.831723e-05 0.00033027292 0.0012133823 0.00091880397 0.00039712517 0.000604875 0.00032754338 -1.8753306e-06
0.0009003074 -0.00020513184 -4.688417e-05 7.398242e-07 -0.0011892283 -0.0009359772 -0.0009509813 0.00095105614
-0.00038487167 0.001226336

weight f4 [1, 18]
00000000: 2ee0 ff3b 87c8 5bbd 629c 54be 3cd6 19be
00000010: ac7a 79bd eec2 c8bd 6736 41bd f689 093b
00000020: 4201 11be 9ee5 80bc d77d c03b 03bf ebb9
00000030: f722 643e 528c 383e 6cbd 2e3e e2b1 2abe
00000040: e49d 813d 7a3c 52be
0.0078087067 -0.053658035 -0.2076278 -0.1502313 -0.060908005 -0.09802805 -0.047171023 0.0020986772
-0.14160636 -0.01573449 0.0058743763 -0.00044965008 0.22278963 0.18022278 0.17064446 -0.1666942
0.06328943 -0.20530882
