models/model6.pth (torch, 10750 bytes, 5 tensors)

weight f4 [40, 24]
2.3731152e-11 -2.6689921e-11 2.2926653e-13 -7.367546e-12 2.9736751e-12 -1.9963853e-12 2.6318574e-13 6.678251e-14
-1.9765999e-12 -2.5186644e-11 2.194247e-11 2.7697788e-13 -4.1344195e-11 -4.3463648e-13 -3.9800585e-12 7.2561774e-12
-2.7758424e-05 -1.1813087e-11 5.2736582e-12 1.3597643e-12 2.434586e-13 -7.466717e-12 -7.1533155e-13 1.6715202e-12
-0.018463984 0.095433444 0.004085137 0.17855623 0.015387553 0.030043742 0.017296663 0.0067575616
0.004450478 -0.011109419 0.019849164 0.02652952 0.044389307 -0.013091941 -0.105690315 -0.3299798
0.0005698602 -0.06620878 0.03883074 0.035734307 0.0049252147 -0.019236675 0.03887388 0.01126355
-1.7309441e-18 -3.1909392e-18 -1.4662527e-19 -7.7966943e-19 3.726187e-19 2.916352e-19 -9.330463e-20 -1.8910615e-20
7.7315596e-20 -3.0942523e-18 -1.1300054e-18 5.8786713e-19 -1.2004126e-17 3.53978e-19 2.594481e-19 -1.0044653e-17
-2.2560436e-17 -1.1356566e-18 5.3544533e-19 7.137293e-19 4.831116e-20 1.0153731e-18 -1.0567992e-19 2.472442e-19
2.2519674e-26 1.1456607e-25 2.4014623e-27 -8.154694e-28 -9.292682e-28 -4.7482378e-28 -9.491389e-28 1.067848e-28
-2.7670136e-28 -1.2842792e-25 -3.937609e-26 -5.434567e-28 -9.1809715e-26 7.1012275e-29 1.3383888e-27 -7.135942e-27
-5.574726e-24 2.9365054e-27 -6.717874e-28 -1.4164498e-27 -1.8611054e-29 3.5458217e-28 4.759725e-27 9.114273e-28
0.0018892016 0.0013943732 2.2184788e-05 -0.00086266774 -3.2129003e-05 -9.3519244e-05 -4.9337832e-05 -1.0113274e-05
-4.0490295e-06 0.0016624694 0.00096488383 -3.884096e-05 0.0011160527 1.0711219e-05 0.00061732164 0.0025759859
0.011882637 0.00038758517 -0.00012156934 -0.00011271834 -1.0286563e-05 9.602159e-05 -0.000100156125 -2.2196062e-05
0.0010022519 0.0008805708 7.103572e-06 -0.00024111157 -1.6695423e-05 -5.6237768e-05 -2.6731244e-05 -5.5344717e-06
-5.0779126e-06 0.001517608 0.0012785922 -3.0095262e-05 0.00045093548 4.4128083e-05 0.00020452432 0.00064650114
0.010522871 0.000121496814 -5.95817e-05 -4.746464e-05 -2.3956832e-06 5.0953982e-05 -4.4090048e-05 -2.9096469e-05
-1.0413738e-12 -2.0342669e-12 1.8350257e-15 -4.1864082e-13 -1.704912e-14 -1.8815406e-13 9.696295e-14 -2.3329729e-14
3.8355617e-15 3.2288681e-12 -2.5856848e-13 8.4465224e-14 -2.9276945e-12 -1.7438569e-14 4.0469676e-14 -2.1582137e-12
-2.164962e-11 -3.0206344e-13 -7.793024e-14 3.762784e-13 -7.599362e-15 1.125013e-13 9.973148e-14 -4.997254e-14
0.0012842509 0.0009778313 -4.234076e-06 -0.0005194923 -5.0721108e-05 -3.131064e-05 -3.14664e-05 -3.126715e-05
-7.0734195e-06 0.0010473615 0.0010693879 -1.6354876e-05 0.0005409751 2.1846296e-05 0.0003647553 0.0016110184
0.021777552 0.00022658237 -0.000120296114 -6.0763698e-05 -6.2245654e-06 5.2092382e-05 -7.2633404e-05 -2.6613565e-05
0.0015508758 0.001027817 2.6599819e-05 -0.0006017711 -1.1987422e-05 -9.781573e-05 -4.8189395e-05 -3.3478886e-05
-6.126669e-06 0.0016498817 0.0012797795 -9.816236e-05 0.0006236127 -1.2974715e-05 0.0003876314 0.001525608
0.010943038 0.00026527033 -0.00012089926 -0.0001186861 -2.823085e-05 6.3733874e-05 -0.000121780206 -1.3865869e-05
0.001112347 0.0007766129 1.35654445e-05 -0.00043815104 2.2226232e-08 -3.6001307e-05 -4.042724e-05 -2.333471e-05
2.0840212e-06 0.0009681192 0.0006988024 -6.367889e-05 0.0007316904 6.775388e-05 0.00032295473 0.0014086231
0.015326384 0.00018860129 -8.382014e-05 -8.226972e-05 -8.089906e-06 3.810668e-05 -6.0335093e-05 -4.4302717e-05
0.0014794434 0.0010254994 2.3267183e-05 -0.0005607704 -9.1016655e-06 -9.794296e-05 -1.937717e-05 -8.443569e-06
-2.3907087e-06 0.0011943902 0.0009241021 -9.457233e-05 0.0008775935 3.9770173e-05 0.000463347 0.0021629147
00000000: cebd d02d 5cc4 eaad ca10 812a 7a9c 01ad
00000010: f840 512c ae7b 0cac 1029 942a 7f61 9629
00000020: 4217 0bac 488b ddad 0d02 c12d b8ec 9b2a
00000030: 6dd5 35ae b8ad f4aa 2e09 8cac d64d ff2c
00000040: c3da e8b7 6ad1 4fad e48c b92c ac5e bf2b
00000050: 150e 892a 1b5b 03ad 1259 49ab dd3e eb2b
00000060: c841 97bc 9c72 c33d 9ddc 853b 72d7 363e
00000070: 131c 7c3c 4b1e f63c bbb1 8d3c 896e dd3b
00000080: 51d5 913b 4804 36bc b79a a23c 7054 d93c
00000090: 90d1 353d 957f 56bc 2a74 d8bd 1df3 a8be
000000a0: ac62 153a 7898 87bd fb0c 1f3d 235e 123d
000000b0: b263 a13b 3b96 9dbc 383a 1f3d c18a 383c
000000c0: 3871 ffa1 2373 6ba2 c51a 2da0 281e 66a1
000000d0: 8cf4 db20 aa26 ac20 304f dc9f 109b b29e
000000e0: 698e b61f c650 64a2 66c2 a6a1 fc81 2d21
000000f0: e26f 5da3 a5f3 d020 b026 9920 884a 39a3
00000100: 5315 d0a3 e597 a7a1 1b09 1e21 dca7 5221
00000110: 9c24 641f b6d7 9521 9887 f99f 7df2 9120
00000120: 2806 df14 70d3 0d16 7143 3e13 5e37 8192
00000130: 993f 9392 487a 1692 a665 9692 a65d 0711
00000140: 5d61 af91 6ffc 1e96 20fb 4295 723a 2c92
00000150: 524f e395 9a09 b410 8013 d412 8657 0d94
00000160: 6aa9 d798 68a7 6813 dee5 5492 0872 e092
00000170: 0fbd bc8f 3fbe e011 598d bc13 e26b 9012
00000180: 169f f73a 67c3 b63a 7819 ba37 a724 62ba
00000190: 41c2 06b8 c31f c4b8 18f0 4eb8 2eac 29b7
000001a0: e6dc 87b6 37e7 d93a 42f0 7c3a 2ae9 22b8
000001b0: 8448 923a 56b4 3337 c1d3 213a dfd1 283b
000001c0: 64af 423c cd34 cb39 0bf3 feb8 3363 ecb8
000001d0: 7494 2cb7 335f c938 e90a d2b8 ae31 bab7
000001e0: fe5d 833a 1bd6 663a 385b ee36 e5d2 7cb9
000001f0: 260d 8cb7 d8e0 6bb8 e93c e0b7 c0b4 b9b6
00000200: f062 aab6 79ea c63a 6f96 a73a 1575 fcb7
00000210: 896b ec39 2b16 3938 9475 5639 f579 293a
00000220: 1f68 2c3c 1bcc fe38 5de7 79b8 c514 47b8
00000230: 86c5 20b6 6cb7 5538 54ed 38b8 3114 f4b7
00000240: 728f 92ab 1826 0fac 403a 0427 80ac ebaa
00000250: 9890 99a8 b7d7 53aa 5657 da29 b122 d2a8
00000260: d030 8a27 1e36 632c a58f 91aa e332 be29
00000270: a804 4eac 9a12 9da8 5c42 3629 ecde 17ac
00000280: 9c6e bead ee0b aaaa ba7b afa9 6fd3 d32a
00000290: dfe5 08a8 9654 fd29 4993 e029 6a0e 61a9
000002a0: 4f54 a83a 932a 803a 7012 8eb6 8a2e 08ba
000002b0: 60bd 54b8 8b53 03b8 cafa 03b8 d924 03b8
000002c0: 3658 edb6 9f47 893a b42a 8c3a d431 89b7
000002d0: 39d0 0d3a 9042 b737 a13c bf39 cf28 d33a
000002e0: d666 b23c be96 6d39 7c47 fcb8 86dc 7eb8
000002f0: 9cdc d0b6 c57d 5a38 c352 98b8 3240 dfb7
00000300: c246 cb3a d1b7 863a ad22 df37 2dc0 1dba
00000310: 961d 49b7 6c22 cdb8 f81e 4ab8 ae6b 0cb8
00000320: b093 cdb6 d840 d83a 46be a73a 84dc cdb8
00000330: f179 233a faad 59b7 013b cb39 e9f6 c73a
00000340: 6e4a 333c fb13 8b39 4c8b fdb8 1de7 f8b8
00000350: 4ad1 ecb7 dda8 8538 4064 ffb8 74a1 68b7
00000360: 2ccc 913a 9c95 4b3a 2497 6337 a3b7 e5b9
00000370: 00ec be32 1c00 17b8 6b90 29b8 e8be c3b7
00000380: 36db 0b36 61c9 7d3a d62f 373a 588b 85b8
00000390: e9ce 3f3a 1617 8e38 4052 a939 8ca1 b83a
000003a0: 841b 7b3c 46c3 4539 98c8 afb8 3888 acb8
000003b0: e2b9 07b7 bcd4 1f38 5010 7db8 aed1 39b8
000003c0: e2e9 c13a 0d6a 863a e52d c337 aa00 13ba
000003d0: 5bb3 18b7 ba66 cdb8 288c a2b7 daa8 0db7
000003e0: 1070 20b6 168d 9c3a 713f 723a 2255 c6b8
000003f0: 4e0e 663a e6ce 2638 62ed f239 b0bf 0d3b

bias f4 [40]
1.4140284e-12 0.0048881173 6.46249e-19 7.314315e-28 9.483465e-06 1.2193148e-05 -9.644097e-16 -5.1394372e-06
-1.0096588e-05 5.521017e-07 1.1440543e-05 2.7863452e-05 -2.019007e-05 0.0007786926 0.0034989847 1.3553985e-05
2.6182775e-05 1.7931716e-05 -5.4825644e-14 3.6868918e-05 -9.663386e-15 5.933972e-05 -8.666313e-17 0.002687867
-9.130101e-19 8.382914e-06 2.9526753e-05 -5.6319186e-06 -3.8432907e-14 2.1718834e-06 -2.5422387e-05 2.7751132e-05
4.378661e-06 3.9207733e-35 0.002568369 -0.0040089404 3.717501e-05 -6.532947e-05 7.530619e-05 4.7573987e-05
00000000: be01 c72b 802c a03b 32bd 3e21 c6cc 6712
00000010: 2c1b 1f37 2c91 4c37 70fc 8aa6 6e73 acb6
00000020: 8464 29b7 2434 1435 c2f0 3f37 4fbc e937
00000030: d85d a9b7 2d21 4c3a 394f 653b ec65 6337
00000040: 15a3 db37 116c 9637 aae9 76a9 b3a3 1a38
00000050: 8114 2ea8 8ae3 7838 e2d4 c7a4 ed26 303b
00000060: 8cbc 86a1 57a4 0c37 38b0 f737 d0f9 bcb6
00000070: 2016 2da9 acc0 1136 2942 d5b7 1acb e837
00000080: 69ec 9236 cd76 5006 1552 283b 6e5d 83bb
00000090: 5dec 1b38 7e01 89b8 b4ed 9d38 2e8a 4738

weight f4 [18, 40]
-6.2999523e-35 -1.3019277e-28 1.187938e-39 -3.3391e-40 -1.0085438e-27 -7.8590662e-28 -1.606149e-37 -8.863909e-28
-9.862423e-28 -6.5711435e-28 -5.442169e-28 -7.624099e-28 -9.485429e-28 1.7102067e-28 -4.6756638e-29 -3.8891396e-28
-3.7113137e-28 -1.0907413e-27 1.046563e-39 -1.843906e-27 1.34295e-40 -8.628683e-28 3.5089755e-36 -3.637706e-29
6.943936e-39 -6.001423e-28 -2.8678373e-28 1.2842427e-28 -9.754439e-39 3.3130155e-28 -7.7968553e-28 2.0503039e-28
-1.7089816e-27 7.2087234e-14 6.023618e-29 1.928398e-28 -6.9190126e-28 4.499444e-28 -6.005933e-29 -1.2503301e-27
-5.2124815e-12 -1.4888195e-06 3.1271696e-22 -4.944949e-33 -0.0015959723 0.0006930844 -2.0746997e-16 0.0036532457
-0.0016049562 0.0008385917 -0.0013762627 9.435938e-05 -7.982167e-05 -0.0007522101 -0.0019223978 -0.0010233361
-0.0006678223 -0.00024816184 -7.783085e-18 -0.0030369018 9.933754e-11 0.0024852655 6.6364803e-15 -0.0017696003
-9.2737965e-18 -0.0005524759 -0.0014743407 -2.2273276e-05 -1.3027765e-15 -0.00071778515 -0.0012418191 0.0008444859
-0.001535086 -1.2357714e-33 -0.0017324009 5.6294215e-07 -0.0011356281 3.273621e-05 -0.0013391376 -0.0010319063
-6.759632e-14 -1.3069572e-07 -2.7422321e-15 -2.536614e-32 -0.0008682603 0.00054832903 2.4121677e-17 -0.0021370514
-0.00037820573 -0.0016097111 -0.0007109214 0.0005431861 -0.0007467551 8.451551e-08 1.0350097e-05 -9.237e-05
-0.00014671219 -0.0006602589 -1.7693586e-19 -0.0019286312 -5.8659e-18 -0.0012797059 -1.9407393e-14 -5.0485804e-05
-4.667828e-16 0.0012004582 0.0012514995 0.0010340532 1.616879e-16 9.2954455e-05 0.0006175233 -0.00047145277
-0.0012217527 1.4595048e-34 -1.682831e-06 1.3618117e-07 -0.0019338735 7.4893534e-05 0.002574445 -0.00023484892
-1.6465583e-20 8.992752e-14 -6.787449e-29 2.2010901e-38 2.0337361e-14 -7.922616e-14 1.1371652e-26 -6.025859e-14
1.1979306e-13 8.207405e-14 6.966048e-15 8.676133e-14 6.851456e-14 2.1738686e-13 9.238295e-14 1.2511577e-13
9.5049924e-14 3.073802e-14 -5.288697e-24 1.5877694e-13 -2.5031834e-24 1.7859408e-13 7.9956705e-22 9.468535e-14
-3.5826517e-25 -2.0276446e-14 5.3794677e-15 -4.2143382e-14 1.3341385e-21 -1.0276757e-13 1.9903251e-13 1.0433965e-14
-1.1610507e-14 -3.89595e-40 1.913416e-13 -2.8188804e-13 7.363397e-14 -4.1668342e-14 1.3542657e-13 6.9432366e-15
3.4166e-40 7.2589054e-38 8.82679e-33 5.081145e-39 -2.83588e-40 -4.395704e-39 2.1381185e-37 -4.967271e-39
-3.315684e-39 -3.388623e-39 -2.369255e-39 2.25238e-40 -1.200344e-39 4.037253e-39 1.091286e-39 -1.011537e-38
-5.591034e-39 -4.063037e-39 4.9346e-40 3.56014e-40 -8.24076e-40 3.92689e-40 4.1633e-41 -2.64213e-40
1.00298e-39 -1.12529e-39 -3.533141e-39 -3.210903e-39 6.441295e-39 -7.298272e-39 -2.043676e-39 -7.49763e-40
-5.77221e-39 1.025125e-39 7.34443e-40 -3.515356e-39 -2.912061e-39 -1.396841e-39 -3.03124e-39 -4.33438e-39
1.45799e-11 -1.3500539e-05 -6.885473e-22 -2.1965799e-30 0.002114088 -0.001156235 4.494301e-09 0.0026574002
-0.00038754838 0.0051673055 -0.0002127491 0.0006806768 -0.0012782903 1.0673243e-06 2.4677833e-05 -0.00036392247
-0.00030696133 -0.0027695422 -6.117702e-17 -0.0023672667 -7.33211e-17 -0.0030382467 -7.069681e-13 -0.000108854685
-1.1398202e-15 -0.0006353794 -0.0015903254 -0.0009833132 2.794072e-15 8.955505e-05 -0.0007104161 0.002324088
-0.0020887926 7.8017e-33 -4.3143473e-06 -1.0274394e-05 -0.0038062613 -0.00052843866 -0.00091662625 -0.0010808804
-6.905612e-22 1.0830418e-15 -9.3072295e-31 -3.0825544e-07 1.70401e-17 1.2258293e-16 -7.590087e-27 -9.709316e-15
5.442064e-16 -3.3264924e-15 1.0021064e-15 -8.596446e-15 2.9449697e-16 7.4777043e-16 6.3348885e-16 7.971462e-16
00000000: 417b a786 f809 2591 7def 0c00 cea2 0380
00000010: 66cf 9f92 5210 7992 209e 5a82 4974 8c92
00000020: be46 9c92 733f 5092 1f78 2c92 0a9e 7192
00000030: 794d 9692 61cb 5811 9615 6d90 e680 f691
00000040: 823b eb91 b9d5 ac92 6465 0b00 db16 1293
00000050: 5c76 0100 19ba 8892 5c41 9504 2074 3890
00000060: de9c 4b00 5431 3e92 52c5 b591 0fcc 2211
00000070: 6837 6a80 c0fc d111 9b17 7792 15f4 8111
00000080: 4466 0793 7653 a229 84b7 9810 1874 7411
00000090: b345 5b92 d497 0e12 bc44 9890 6a1f c692
000000a0: dc65 b7ac 73d3 c7b5 9b06 bd1b b867 cd89
000000b0: f22f d1ba 1bb0 353a 5432 6fa5 4b6b 6f3b
000000c0: 655d d2ba f0d4 5b3a b763 b4ba cee2 c538
000000d0: ef65 a7b8 f72f 45ba f7f8 fbba 7621 86ba
000000e0: cc10 2fba b81b 82b9 9492 0fa3 c206 47bb
000000f0: 1072 da2e d6df 223b ba1a ef27 eff1 e7ba
00000100: 4412 2ba3 08d4 10ba aa3e c1ba 7fd7 bab7
00000110: f8bf bba6 bf29 3cba 89c4 a2ba 7d60 5d3a
00000120: f034 c9ba e753 cd88 ba11 e3ba 171d 1735
00000130: 5bd9 94ba 3d4e 0938 0086 afba 0841 87ba
00000140: a036 98a9 5e55 0cb4 4199 45a7 62b5 038b
00000150: f69b 63ba bdbd 0f3a b37b de23 c60d 0cbb
00000160: ea49 c6b9 f1fc d2ba 215d 3aba 9a64 0e3a
00000170: e3c1 43ba e57e b533 54a5 2d37 c4b6 c1b8
00000180: c1d6 19b9 3a15 2dba 95e3 50a0 20ca fcba
00000190: dc69 d8a2 cebb a7ba 67ce aea8 b8c0 53b8
000001a0: 7e8a 06a6 b158 9d3a 5b09 a43a 1189 873a
000001b0: d869 3a25 8bf0 c238 4ae1 213a 522d f7b9
000001c0: 3823 a0ba 6000 4207 a2dd e1b5 3239 1234
000001d0: 077a fdba 2910 9d38 05b8 283b c741 76b9
000001e0: 5683 9b9e b07f ca29 1015 ac90 70ad ef00
000001f0: c32e b728 c666 b2a9 203d 6114 b6b0 87a9
00000200: 00e0 062a 78d0 b829 74fa fa27 805e c329
00000210: f447 9a29 7fc1 742a 2507 d029 2ade 0c2a
00000220: 8d08 d629 866e 0a29 b898 cc98 56c4 322a
00000230: a8ac 4198 3d14 492a 81a7 711c 6336 d529
00000240: 62c1 dd96 4da2 b6a8 d5d0 c127 03cc 3da9
00000250: fc9b c91c 7969 e7a9 3717 602a 2cf6 3b28
00000260: 0328 51a8 083e 0480 766e 572a 59b0 9eaa
00000270: 18cf a529 54a8 3ba9 0d7a 182a 0e28 fa27
00000280: 69b8 0300 309b c501 4453 370a 2a54 3700
00000290: 8716 0380 6fdd 2f80 4783 9102 bb16 3680
000002a0: c71a 2480 1ae6 2480 85cc 1980 df73 0200
000002b0: 1212 0d80 38f6 2b00 10e2 0b00 8925 6e80
000002c0: 87e1 3c80 183e 2c80 915f 0500 6ce0 0300
000002d0: 30f9 0880 a846 0400 0e74 0000 85e0 0280
000002e0: e6eb 0a00 da40 0c80 f678 2680 b1f6 2280
000002f0: b623 4600 9d78 4f80 f040 1680 092a 0880
00000300: 93da 3e80 a229 0b00 54ff 0700 6247 2680
00000310: a4b5 1f80 d335 0f80 dd01 2180 7d32 2f80
00000320: 043f 802d 6080 62b7 c419 509c 2e35 328e
00000330: 838c 0a3b cf8c 97ba 4a6c 9a31 c727 2e3b
00000340: dd2f cbb9 8052 a93b 6715 5fb9 726f 323a
00000350: 4e8c a7ba fc40 8f35 3e03 cf37 d9cc beb9
00000360: a7ef a0b9 3581 35bb 8a10 8da4 2524 1bbb
00000370: 2311 a9a4 521d 47bb 6cfe 46ab ea48 e4b8
00000380: f143 a4a6 978f 26ba 7772 d0ba 84e2 80ba
00000390: 8855 4927 80cf bb38 383b 3aba ba4f 183b
000003a0: 20e4 08bb f408 220a f6c3 90b6 3060 2cb7
000003b0: 7872 79bb eb86 0aba bf49 70ba 54ac 8dba
000003c0: 96b5 509c 3115 9c26 b804 978d 4e7e a5b4
000003d0: cc2a 9d23 1854 0d25 5056 1694 51e8 2ea8
000003e0: 58db 1c26 f4b2 6fa7 336b 9026 1cdc 1aa8
000003f0: 15c4 a925 b887 5726 3a97 3626 02c3 6526

bias f4 [18]
-4.663305e-29 -1.7670179e-09 3.0316784e-08 -5.8079876e-15 4.46937e-40 -2.3250893e-06 3.8860806e-17 2.2742114e-07
-1.4892563e-05 -0.00016794025 9.227135e-08 0.004018823 -0.0033481936 -4.5522754e-07 0.0049117384 -3.4306815e-08
1.2087031e-05 -8.358696e-05
00000000: 2975 6c90 6adb f2b0 a835 0233 3b41 d1a7
00000010: e1dd 0400 bb08 1cb6 be36 3324 0c31 7434
00000020: 12db 79b7 1e19 30b9 b626 c633 55b0 833b
00000030: 5e6d 5bbb ff65 f4b4 a6f2 a03b be58 13b3
00000040: 67c9 4a37 684b afb8

weight f4 [1, 18]
-7.3691843e-28 -0.009238615 0.0012241428 1.453581e-13 -2.761076e-39 0.018694874 1.8641767e-11 -1.3780699e-05
0.0059704045 -0.07993873 -2.5823053e-06 0.19115713 -0.37916172 5.16626e-05 0.20407033 5.4784033e-07
0.0012900417 -0.040952444
00000000: ed89 6992 8f5d 17bc 6b73 a03a 9fa8 232a
00000010: c210 1e80 fe25 993c 87f9 a32d a733 67b7
00000020: 62a3 c33b ebb6 a3bd ab4b 2db6 b2be 433e
00000030: 7c21 c2be 4bb0 5838 d0f7 503e 4d0f 1335
00000040: 9e16 a93a c0bd 27bd
