models/model3.pth (torch, 10750 bytes, 5 tensors)

weight f4 [40, 24]
0	0xab24fe66	-5.8617553e-13
1	0x2bf0f7ae	1.7121771e-12
2	0xaabf1a4d	-3.3946665e-13
3	0x2ba254de	1.1534348e-12
4	0xa9359d49	-4.0326497e-14
5	0x2a11277a	1.2892283e-13
6	0x29eb00f1	1.043626e-13
7	0xa91637cd	-3.335509e-14
8	0x278abe4e	3.8509023e-15
9	0x2aca2274	3.5906315e-13
10	0x2b5e25c8	7.8922676e-13
11	0xa9ba5e3c	-8.2764064e-14
12	0xac00ab45	-1.8284968e-12
13	0xa9926da4	-6.502722e-14
14	0xab43e9d7	-6.9602435e-13
15	0xaab2c462	-3.175542e-13
16	0xb63600c7	-2.7120566e-06
17	0xaaa2a7fb	-2.889354e-13
18	0x2abca829	3.3512193e-13
19	0x2a776939	2.1974513e-13
20	0x29e32793	1.008769e-13
21	0xa91fd50c	-3.548988e-14
22	0x29946488	6.58996e-14
23	0x296cb1d7	5.2556778e-14
24	0x3ae052e9	0.0017114553
25	0x3a74a1ed	0.000933199
26	0xb7d812cc	-2.575796e-05
27	0xb9b49508	-0.00034443312
28	0xb83af29b	-4.45718e-05
29	0xb8da9fac	-0.00010424791
30	0xb7d595a0	-2.5461253e-05
31	0xb7905b6c	-1.720871e-05
32	0xb7dcf4b0	-2.6339985e-05
33	0x3a08d9b8	0.0005220431
34	0x39bb5353	0.000357295
35	0xb820ee63	-3.8368988e-05
36	0x3a96d530	0.0011507627
37	0x38924b56	6.975855e-05
38	0x390ef6f7	0.00013634177
39	0x3b3546a3	0.002766051
40	0x3bc922e8	0.0061381944
41	0x38e86b35	0.00011082591
42	0xb8c5cba7	-9.431625e-05
43	0xb8bf30b4	-9.1166614e-05
44	0xb790ac6f	-1.7246433e-05
45	0x39170c4b	0.00014405062
46	0xb9153392	-0.00014228959
47	0xb7dd70b0	-2.6397727e-05
48	0x3650ef71	3.1133789e-06
49	0xb6ef004b	-7.122789e-06
50	0xb38fb280	-6.6914254e-08
51	0x36f9545b	7.4305985e-06
52	0x3547754a	7.4303955e-07
53	0xb5263697	-6.191926e-07
54	0x358d450a	1.0525412e-06
55	0xb51f3bce	-5.9319143e-07
56	0xb4243fe4	-1.5296933e-07
57	0x36cb4445	6.057819e-06
58	0xb6887e17	-4.0677946e-06
59	0x3592dd5e	1.0942274e-06
60	0x373d9527	1.1300005e-05
61	0xb4db458b	-4.0842528e-07
62	0xb64c0cc7	-3.0405806e-06
63	0xb2371c80	-1.0658482e-08
64	0xbb45f1b4	-0.003020388
65	0xb629ea63	-2.5319393e-06
66	0x35a8a571	1.2565125e-06
67	0xb4a12982	-3.0018788e-07
68	0x3482eb6c	2.438568e-07
69	0xb56af782	-8.7531964e-07
70	0xb4fcb8c0	-4.707308e-07
71	0x331e6dcc	3.68871e-08
72	0xb9933692	-0.00028078683
73	0x390f91b2	0.00013691818
74	0x37e2217a	2.6956888e-05
75	0xb8dc4ea3	-0.00010505065
76	0xb7b705b1	-2.181795e-05
77	0xb84e2cbd	-4.9155893e-05
78	0xb770b6d1	-1.434768e-05
79	0xb6728338	-3.613719e-06
80	0x373566fa	1.0812417e-05
81	0xb988459e	-0.0002599181
82	0xb922c7a2	-0.00015523893
83	0xb7ec8da3	-2.8199347e-05
84	0x3900d7a6	0.00012287367
85	0x36d8b545	6.458404e-06
86	0x378a0660	1.645385e-05
87	0xb9bfdc93	-0.000365947
88	0x3c40523e	0.011738358
89	0x37c9086e	2.3964993e-05
90	0xb7f35568	-2.9007628e-05
91	0x376b722f	1.4033677e-05
92	0xb768ce20	-1.387627e-05
93	0x38224390	3.8686732e-05
94	0xb683d526	-3.928918e-06
95	0x3740522a	1.1463222e-05
96	0x0cf67863	3.7974756e-31
97	0x8bb600ea	-7.0105225e-32
98	0x09235daa	1.9664452e-33
99	0x8b3b7d7e	-3.61093e-32
100	0x89c95950	-4.847298e-33
101	0x099aa553	3.722962e-33
102	0x89454908	-2.3747352e-33
103	0x091b0816	1.8661248e-33
104	0x0991e73c	3.5124932e-33
105	0x0ca2a1c6	2.5057416e-31
106	0x0bb64818	7.0212325e-32
107	0x0a95249a	1.4361946e-32
108	0x8b0dcb68	-2.7308638e-32
109	0x0920328c	1.9283066e-33
110	0x8c0fdcd1	-1.1082769e-31
111	0x0cf3396f	3.7474645e-31
112	0x9806978a	-1.7395602e-24
113	0x07a8b7c0	2.538583e-34
114	0x09c10110	4.646406e-33
115	0x0a7abde8	1.20727795e-32
116	0x08fc98e5	1.5202644e-33
117	0x89422f20	-2.3374059e-33
118	0x0abe3950	1.8317893e-32
119	0x88a263dd	-9.773498e-34
120	0xb2417410	-1.1260468e-08
121	0x3242dd18	1.1342557e-08
122	0xaff082d0	-4.3748694e-10
123	0x308e3be7	1.0348885e-09
124	0xafca2784	-3.6771663e-10
125	0x2fa9738c	3.0823022e-10
126	0xb1cb5246	-5.917431e-09
127	0x2ed48f8c	9.666143e-11
128	0xab582398	-7.678801e-13
129	0xb349953f	-4.6934698e-08
130	0xb3fc9d08	-1.1763228e-07
131	0xb2d3b308	-2.4645047e-08
132	0x3390d140	6.743585e-08
133	0x2f2e2548	1.5838453e-10
134	0xb19481c8	-4.3221213e-09
135	0xb2eb7197	-2.7409255e-08
136	0xb4c3ff01	-3.650712e-07
137	0xb06e24e6	-8.663633e-10
138	0x2f51fa6d	1.9097408e-10
139	0x2fed56ff	4.3171863e-10
140	0x2e11efb0	3.3182068e-11
141	0x2ed86e80	9.8421715e-11
142	0xb03b7796	-6.8200146e-10
143	0x2e6076dc	5.103727e-11
144	0xa21a6dd2	-2.092903e-18
145	0xa2ccc676	-5.550444e-18
146	0x203b21a4	1.5850647e-19
147	0x2327a1cf	9.0873524e-18
148	0x9f940f69	-6.270593e-20
149	0xa17e604f	-8.618601e-19
150	0x20f3f80a	4.132994e-19
151	0xa01efd88	-1.3467007e-19
152	0x1f2fe03e	3.724318e-20
153	0x2390c6b3	1.5696664e-17
154	0xa1cbc6f2	-1.3808475e-18
155	0xa1832629	-8.887006e-19
156	0xa298c57a	-4.140877e-18
157	0xa08364a5	-2.2258864e-19
158	0x21790578	8.437172e-19
159	0x22de50b8	6.0258685e-18
160	0xa5b6c903	-3.1708178e-16
161	0x224c8d4a	2.7721953e-18
162	0x21511850	7.084413e-19
163	0x212c9a7c	5.8480325e-19
164	0xa0286d01	-1.426622e-19
165	0xa11dc8cb	-5.3459416e-19
166	0x9fb97c00	-7.855569e-20
167	0x2178aec8	8.425699e-19
168	0x3a9778d0	0.0011556391
169	0x3a307dda	0.00067326205
170	0xb977e880	-0.00023642369
171	0xbaac07a5	-0.0013124837
172	0xb945fdb1	-0.00018881891
173	0xb9c1a53c	-0.00036934938
174	0xb9089634	-0.00013025926
175	0xb88b5aea	-6.6449706e-05
176	0xb85de43e	-5.2903073e-05
177	0x3a1db25a	0.0006015651
178	0x39955130	0.00028479984
179	0xb978190e	-0.00023660457
180	0x3a9e1d26	0.001206313
181	0x39009c21	0.00012265194
182	0x3a8673da	0.0010257915
183	0x3af17504	0.0018421714
184	0x3aa57ac7	0.0012625091
185	0x3903bb46	0.00012562898
186	0xb7c899e8	-2.3913526e-05
187	0xb9c43c04	-0.00037428748
188	0xb81fc35c	-3.8090497e-05
189	0x38f94105	0.00011885356
190	0xb9c22bd2	-0.00037035212
191	0xb8de8865	-0.000106111904
192	0xba3398af	-0.000685106
193	0xb9614fe1	-0.0002148743
194	0x384a8c3f	4.8291167e-05
195	0xb773f914	-1.4541922e-05
196	0x37f4c6d1	2.9179648e-05
197	0xb625a6c8	-2.4683995e-06
198	0x35cd60c8	1.5301857e-06
199	0xb71c83f1	-9.329045e-06
200	0x3702bb33	7.7921895e-06
201	0xb9d8c3bf	-0.00041344573
202	0xb9bb2a8a	-0.00035699114
203	0x35502a20	7.754734e-07
204	0xb9835b43	-0.00025054262
205	0xb7271dcc	-9.960913e-06
206	0x37a16548	1.9239858e-05
207	0xba7e26c1	-0.0009695106
208	0x3ba0be7f	0.0049055214
209	0xb80a83d4	-3.302454e-05
210	0x37ae7e78	2.0801308e-05
211	0x37ad3298	2.0646767e-05
212	0x367e2204	3.786875e-06
213	0x37923217	1.7427881e-05
214	0x3780efe4	1.5370497e-05
215	0x37a8e24c	2.0132538e-05
216	0x1f1c5d5c	3.311151e-20
217	0xa0d6d7b0	-3.639574e-19
218	0x9e53d7cc	-1.1214873e-20
219	0x9eb3316e	-1.8972806e-20
220	0x9d568fdc	-2.8397038e-21
221	0x9cd9ea42	-1.442041e-21
222	0x9e490ff6	-1.0644152e-20
223	0x9defa1b6	-6.342998e-21
224	0x9d6ec9b2	-3.1603312e-21
225	0x1f14d4a8	3.1516124e-20
226	0x9f9c3d6b	-6.617018e-20
227	0x9e97a7c3	-1.6057132e-20
228	0x9f3d3c08	-4.0071963e-20
229	0x1d8342ee	3.4744615e-21
230	0x9d8af84a	-3.678502e-21
231	0x9f4b41b0	-4.3041257e-20
232	0xac9d4e82	-4.4709245e-12
233	0x1e604e22	1.1874619e-20
234	0x9f05502f	-2.8230172e-20
235	0x9ce162bf	-1.4914776e-21
236	0x1d2152f0	2.135105e-21
237	0x9c8de6f2	-9.390295e-22
238	0x9c4b184e	-6.719848e-22
239	0x1b505ea0	1.7235932e-22
240	0x9fdad88d	-9.2684844e-20
241	0xa0a02d72	-2.7135127e-19
242	0x1e85666d	1.4124285e-20
243	0x9e3bca49	-9.941529e-21
244	0x1e3bb83e	9.937798e-21
245	0x9da44b6b	-4.348842e-21
246	0x1dca05a1	5.3474775e-21
247	0x9caad684	-1.1305107e-21
248	0x9e19c59b	-8.1406164e-21
249	0xa09c7db6	-2.6510616e-19
250	0x9fc63f4b	-8.396097e-20
251	0x1c4ab18a	6.7065657e-22
252	0xa0b96308	-3.1405752e-19
253	0x9dc24440	-5.142194e-21
254	0x9f27ecdd	-3.5559554e-20
255	0x9feec39f	-1.0112055e-19

bias f4 [40]
0	0x29671d32	5.1317627e-14
1	0x386612e3	5.4853863e-05
2	0x35034e81	4.891554e-07
3	0x386c2eb7	5.631029e-05
4	0x89a91b62	-4.071102e-33
5	0x30bfae8a	1.3946686e-09
6	0x1f891944	5.8063555e-20
7	0xb9883995	-0.00025982843
8	0x3852a8bc	5.0225048e-05
9	0x9d1c95dd	-2.0723906e-21
10	0x1d91b1f6	3.8565188e-21
11	0xb796861c	-1.7943843e-05
12	0x3b4b5636	0.0031026728
13	0x38aed871	8.337282e-05
14	0x17a3b6b6	1.0579751e-24
15	0x389f1a45	7.586604e-05
16	0xb81a1f7a	-3.6745776e-05
17	0x38821cff	6.204284e-05
18	0x38cf480e	9.8839504e-05
19	0xb8508c38	-4.9721653e-05
20	0x2c049347	1.8840084e-12
21	0x25e4305d	3.9584467e-16
22	0xa82bf246	-9.5449415e-15
23	0x3b7e6fc1	0.0038823935
24	0x951acd58	-3.126204e-26
25	0x38478696	4.757064e-05
26	0x3b483c77	0.0030553618
27	0x38b47391	8.604595e-05
28	0x38222aea	3.8663777e-05
29	0xab9df517	-1.1223547e-12
30	0xaa8ea04c	-2.5335495e-13
31	0x35cb0d80	1.5128608e-06
32	0x2236993a	2.4746717e-18
33	0x1b8a5822	2.288714e-22
34	0x865849d8	-4.0679337e-35
35	0x3a727610	0.000924916
36	0x90dc1213	-8.680255e-29
37	0xbad4afeb	-0.0016226744
38	0x975ab5bc	-7.066898e-25
39	0x1371b94c	3.0509835e-27

weight f4 [18, 40]
0	0xb016ee36	-5.49082e-10
1	0xba4acd52	-0.00077362836
2	0x3735f0ce	1.0844507e-05
3	0x38e28f24	0.00010803182
4	0x9289ad0a	-8.688573e-28
5	0x31fd4178	7.370712e-09
6	0xa289b744	-3.7327964e-18
7	0xba28971c	-0.00064312085
8	0x3929c20e	0.00016189387
9	0xa6735384	-8.4420746e-16
10	0xa65bba47	-7.623334e-16
11	0x3a77ebd4	0.00094574434
12	0x3b5352ba	0.0032245354
13	0xb8bcd978	-9.005045e-05
14	0x9b6bd75d	-1.9508332e-22
15	0x38bafe5c	8.916549e-05
16	0xb96186a3	-0.00021507828
17	0x3a0f4172	0.0005464769
18	0x38910f11	6.916945e-05
19	0x3a91b22c	0.0011115721
20	0x2e2a4133	3.8711433e-11
21	0xaabe2100	-3.3773678e-13
22	0xafc61173	-3.6028389e-10
23	0x3b5ba0bd	0.0033512556
24	0x9bd831ee	-3.576647e-22
25	0xb9368f73	-0.00017410312
26	0x3b5aca12	0.0033384603
27	0x39d44e74	0.00040494243
28	0x392ceb89	0.00016490942
29	0xb1fe4152	-7.399799e-09
30	0x2f119bf8	1.3243084e-10
31	0x38a1a6ca	7.708145e-05
32	0xa3f5f698	-2.666739e-17
33	0xa341e77a	-1.0511568e-17
34	0x8eb80d4f	-4.5372318e-30
35	0x3b29fa02	0.002593637
36	0x987f8081	-3.3022855e-24
37	0xbb167771	-0.0022959376
38	0x1d2c86a6	2.2833622e-21
39	0x940ec87a	-7.208705e-27
40	0x91a0567d	-2.5296851e-28
41	0x9c0fefdd	-4.7624747e-22
42	0x15590680	4.382793e-26
43	0x9d157f3a	-1.978576e-21
44	0x8011c6d1	-1.632525e-39
45	0x908fef10	-5.677189e-29
46	0x801cdb74	-2.650119e-39
47	0x95203365	-3.2352286e-26
48	0x1b2fefce	1.4553146e-22
49	0x89b13a8f	-4.266627e-33
50	0x876775af	-1.7413093e-34
51	0x9e2f9e79	-9.297194e-21
52	0x99a000ea	-1.6543981e-23
53	0x99523580	-1.086755e-23
54	0x0008d34b	8.10482e-40
55	0x9c136f2a	-4.8781896e-22
56	0x9bb8eedc	-3.0594606e-22
57	0x9cd9f4f2	-1.4423172e-21
58	0x1cc6382b	1.311706e-21
59	0x9e1757d9	-8.01204e-21
60	0x8c991da8	-2.3591231e-31
61	0x8fce1c74	-2.0324128e-29
62	0x2695c240	1.0391603e-15
63	0x9b0c56be	-1.1608556e-22
64	0x8017d8c7	-2.189981e-39
65	0x1c7465bc	8.0864316e-22
66	0x9a8b8c78	-5.771599e-23
67	0x9c08ebc1	-4.530333e-22
68	0x9cfc0d5b	-1.6679413e-21
69	0x1498793e	1.53959e-26
70	0x8adb7484	-2.1132761e-32
71	0x1aaaab82	7.058744e-23
72	0x0199f320	5.655219e-38
73	0x02831c00	1.9264791e-37
74	0x80176d5c	-2.151447e-39
75	0x1b48a845	1.6597983e-22
76	0x000cd3a4	1.177948e-39
77	0x1ac30796	8.0662365e-23
78	0x0178c2af	4.5690085e-38
79	0x001a0b85	2.391855e-39
80	0x301a9bf2	5.6246485e-10
81	0x3d2d6738	0.042334765
82	0x3594400e	1.1045502e-06
83	0x3c7de3a9	0.015496173
84	0x1295b794	9.4484775e-28
85	0x32d8f83c	2.5258593e-08
86	0xa4d658ff	-9.295847e-17
87	0x3a96a29c	0.0011492553
88	0x3c4fa717	0.012674115
89	0x265ef107	7.7348375e-16
90	0x2714dcaa	2.0658748e-15
91	0xbcdf0ecf	-0.027228741
92	0xbd639075	-0.055557687
93	0x3b66a8a4	0.0035195732
94	0x9d4758aa	-2.6383269e-21
95	0x3bf18249	0.0073702675
96	0x3d612e82	0.054975994
97	0xbc7850e6	-0.015156006
98	0xbc173447	-0.0092287725
99	0x3c401bfe	0.011725424
100	0xaf549213	-1.9333184e-10
101	0xaf0625d1	-1.2200664e-10
102	0xb088d321	-9.955309e-10
103	0xbd7841fe	-0.06060981
104	0x1dc79d45	5.2837474e-21
105	0x3d2d1c45	0.042263288
106	0xbd6e6e97	-0.058210935
107	0x3d4c710b	0.049912494
108	0x3c37ab92	0.011210339
109	0xb3de8524	-1.0361899e-07
110	0xaf997ddf	-2.7919975e-10
111	0x3d999fea	0.07501204
112	0x263d89d5	6.5759345e-16
113	0x23af0fa8	1.8980169e-17
114	0x0ed0cbad	5.147209e-30
115	0xbd3ccfc7	-0.04609659
116	0x98a08290	-4.1490865e-24
117	0x3d14ad41	0.03629804
118	0x9e625da8	-1.1983708e-20
119	0x15988aef	6.161151e-26
120	0xad9425bb	-1.6842408e-11
121	0x3872b7f1	5.7868605e-05
122	0xb3742538	-5.6844527e-08
123	0x3906f331	0.00012869832
124	0x8fbe9276	-1.8791861e-29
125	0xafcfe224	-3.7813763e-10
126	0x2006037e	1.1351397e-19
127	0x38263608	3.9627805e-05
128	0x385052d3	4.96682e-05
129	0x2265dfc2	3.1153744e-18
130	0x23c74de2	2.1608608e-17
131	0xb9bc6500	-0.00035933405
132	0xb6bc14b0	-5.605245e-06
133	0x38c7fd3c	9.536228e-05
134	0x17d41836	1.3706291e-24
135	0x38a6259b	7.9225014e-05
136	0x38b25ef8	8.505391e-05
137	0x38c42b64	9.3540904e-05
138	0x38b94986	8.835182e-05
139	0xb9c59eb6	-0.00037693017
140	0x2c30a9ce	2.5105365e-12
141	0xac78620a	-3.5297342e-12
142	0x2d87458d	1.537861e-11
143	0xb6b5e244	-5.420561e-06
144	0x990d56e2	-7.307075e-24
145	0x38eb3fc5	0.00011217551
146	0xb7323d1a	-1.0623853e-05
147	0x38a59097	7.894745e-05
148	0x39d8be79	0.00041340644
149	0xb10f2b44	-2.0833832e-09
150	0xac11944f	-2.0688067e-12
151	0x383da95b	4.5218836e-05
152	0xa230abe4	-2.3943446e-18
153	0xa15889fa	-7.3366257e-19
154	0x8bd303d4	-8.1280004e-32
155	0xb6d370ec	-6.301436e-06
156	0x15ca01b0	8.158981e-26
157	0x376e40dd	1.4201008e-05
158	0x1b430ee5	1.6134835e-22
159	0x138fff3a	3.6349948e-27
160	0x2f7fbc5c	2.3259034e-10
161	0xbb10cee0	-0.0022095963
162	0xba5fdb86	-0.00085394864
163	0x3d27020e	0.040773444
164	0x923c4a36	-5.941381e-28
165	0xb3d2b55e	-9.8118775e-08
166	0x253ee93d	1.6558897e-16
167	0x3abe7e56	0.0014533501
168	0xbcefe643	-0.029284602
169	0x274285a9	2.6995366e-15
170	0xa5d5258d	-3.6975055e-16
171	0x3dcd581d	0.10026572
172	0xbe0355c0	-0.1282568
173	0x3dd0469a	0.10169716
174	0x1dd34827	5.592584e-21
175	0xbd7b6302	-0.061373718
176	0x3d6f7edf	0.058470603
177	0x3daed5f3	0.08536901
178	0xbd75cdf9	-0.060010884
179	0x3dad3a5c	0.08458397
180	0xaf48d8cc	-1.8266916e-10
181	0xafb9cc87	-3.379663e-10
182	0x306f1806	8.6981833e-10
183	0xbe0f13f7	-0.1397246
184	0x1e1fa77a	8.452023e-21
185	0xbc03537e	-0.008015512
186	0xbe0a6ee0	-0.13518858
187	0xbd3c8f15	-0.04603489
188	0x3d1a94e0	0.037739635
189	0xb4abd12b	-3.2003422e-07
190	0x300008a9	4.6578436e-10
191	0x3cb14135	0.021637538
192	0xa528f3dc	-1.46543e-16
193	0xa4807788	-5.5713645e-17
194	0x0fb70a63	1.8049194e-29
195	0xbdd904f3	-0.10596647
196	0x98829405	-3.3753674e-24
197	0x3d48bf46	0.049010538
198	0x9daccaa1	-4.5737534e-21
199	0x9692ea5c	-2.3735474e-25
200	0xb009f6c0	-5.019096e-10
201	0x3cf13faa	0.029449303
202	0xb84f2525	-4.938724e-05
203	0x3c1ea2c7	0.009682364
204	0x92a015e5	-1.0102817e-27
205	0x334872f1	4.6670667e-08
206	0x24bb6cde	8.128275e-17
207	0xba99c467	-0.0011731506
208	0x3b04e658	0.0020278897
209	0x239190ba	1.5782226e-17
210	0xa6dd52df	-1.5357418e-15
211	0xbc96b7c5	-0.018398175
212	0x3d2d6988	0.04233697
213	0x3caa6913	0.020802056
214	0x1d9c2b17	4.133741e-21
215	0xbce2f75e	-0.027705844
216	0x3c3490b4	0.011020828
217	0x3ce7e467	0.028307153
218	0x3cea7605	0.02862073
219	0x3db8da94	0.090260655
220	0x2f735daf	2.2134004e-10
221	0x2dee63da	2.710181e-11
222	0x2f695fd0	2.1225266e-10
223	0x3d3d1f0c	0.046172187
224	0x9d968f83	-3.9853057e-21
225	0xba0efc7b	-0.00054544926
226	0x3d3588a5	0.044319768
227	0x3c5a77c6	0.01333422
228	0xbbd0eba4	-0.006375747
229	0x33306c9a	4.1076966e-08
230	0xaf8aff55	-2.5283478e-10
231	0x3cb448a0	0.022007287
232	0x25d739fe	3.7335852e-16
233	0xa3888e2e	-1.4805365e-17
234	0x0e1961ca	1.890579e-30
235	0x3d10617a	0.03524921
236	0x16c8e9b4	3.245923e-25
237	0xbce46b10	-0.027883083
238	0x1e4a0f5c	1.0696967e-20
239	0x9632f0b2	-1.4454676e-25
240	0xaf90092b	-2.6199962e-10
241	0xbc794379	-0.015213841
242	0xba94e596	-0.0011359926
243	0x3dcca6de	0.09992765
244	0x91fbccc0	-3.9727004e-28
245	0xb342966c	-4.5305953e-08
246	0x2545353c	1.7105063e-16
247	0x3aba71eb	0.0014224624
248	0xbc5ab0d3	-0.013347822
249	0x271f0f09	2.2073833e-15
250	0xa64a8f1c	-7.027678e-16
251	0x3d52acc9	0.051434312
252	0xbe1c4d1d	-0.15263791
253	0xbccdfb7a	-0.025144327
254	0x1dcaa84a	5.364296e-21
255	0x3d9d9754	0.07694879

bias f4 [18]
0	0x38266192	3.9668354e-05
1	0x9b4c7f68	-1.6915652e-22
2	0x3990491c	0.0002752029
3	0x36ed05dc	7.0638325e-06
4	0x3a1e786d	0.00060451665
5	0xb91b5a8a	-0.0001481568
6	0x3a3fdae5	0.00073186896
7	0x390e36b4	0.00013562554
8	0xb4a08c2a	-2.9904305e-07
9	0x3901fdf4	0.00012397004
10	0x36e6ae78	6.874845e-06
11	0xba000bd6	-0.0004884576
12	0x3a0ae5d9	0.0005298532
13	0x23acc4dd	1.8731652e-17
14	0x39d14669	0.00039916046
15	0x3721c63e	9.642505e-06
16	0xba1ff99f	-0.0006102565
17	0xba06a128	-0.00051357085

weight f4 [1, 18]
0	0x3bbee4a6	0.005825597
1	0x1c54aaef	7.036584e-22
2	0xbdaab37d	-0.08335016
3	0xba019a17	-0.00049439206
4	0xbe39c0f3	-0.1814001
5	0x3d82c646	0.06385474
6	0xbe5b8ef8	-0.21441257
7	0xbe5c8685	-0.2153569
8	0xb73a8857	-1.1118208e-05
9	0xbdf99607	-0.121868186
10	0x3d0c824c	0.03430395
11	0x3e28e3d2	0.16493157
12	0xbded1521	-0.11576296
13	0x2c40bb89	2.7388944e-12
14	0xbe02c173	-0.12769108
15	0xbab9c373	-0.0014172628
16	0x3e3ec69e	0.18630454
17	0x3e1cf628	0.15328276
