models/model9.pth (torch, 10750 bytes, 5 tensors)

weight f4 [40, 24]
00000000: 8244 99af 2baa 05b0 7268 6aae bdb9 3b2f
00000010: 6045 722e 7a8c 2a2c 0869 d42c c36a adac
00000020: 605f cb2a 3f8c 9aaf ceb2 3fb0 3027 212e
00000030: fc1d 622f 835e 1dad 4950 4d2e c511 91b0
00000040: e719 e8b9 6550 0dae 749b 102e e32f 8a2e
00000050: 390f 932c 172e daad ab28 a92d b099 382d
00000060: 8ece 8f39 35c9 593a a9f6 a0b8 a895 9239
00000070: 4d61 8e38 c0fc 4b38 b544 0438 03d2 4b37
00000080: d267 b937 edae 0b3a 4eb9 923a 03c7 9138
00000090: 5c23 c53a 3a67 40b7 f74f f0b8 a07d a6b9
000000a0: 290b 2e3c b0bd 8bb8 2b02 8338 ce5a 9e38
000000b0: 6b2a 3c37 095a c5b8 84a0 5f38 8f82 9537
000000c0: 418b 5b3d cccd 5bbd 7c62 45bb e688 04be
000000d0: e3b9 56bc ed80 c0bc d192 5ebc f55e 91bb
000000e0: 6a04 14bb 444b a0bc 185f aabb b885 aebc
000000f0: 0878 fd3a 42b8 483c 42b5 9b3d 9464 703e
00000100: dcec 37b9 a1e8 423d 5415 00bd 0f87 f3bc
00000110: c009 1ebb 2c4d 8b3c 9182 fcbc 605e 0ebc
00000120: 56a1 3d3a f0d3 693a 9a9f 50b8 1e01 0d39
00000130: c489 3137 dcd6 1236 ce89 4137 6c48 37b6
00000140: f8c9 8c36 2c6b 0e3a 1ce0 a93a 1b2b 2138
00000150: 968e e13a 7ac7 1fb7 69f6 36b8 d478 9237
00000160: 9878 843b e865 1cb8 74d8 1038 a6e8 2e38
00000170: f1d4 2736 bf3d fdb7 18bc 8037 2a19 a136
00000180: b8db 013b 7d87 923a aa77 6e38 baf1 2ab9
00000190: e645 6c36 aa76 42b8 f5ce 9ab7 76ba 39b7
000001a0: 8404 c6b6 79e5 2a3a 84c0 483a 70ca a1b8
000001b0: 066a 203b 2e06 c437 b8fe 5838 72a4 013b
000001c0: 0293 ec3b d549 8137 d8d6 9d36 18d8 58b8
000001d0: a049 6db6 cabf d938 4e9b 2eb8 4301 0938
000001e0: 8e53 efb9 3ce8 e939 83ae 87b8 b8f0 243a
000001f0: 9f0e 5a38 2652 7f38 f087 2537 b901 0b38
00000200: 8803 f536 bbb1 de39 cf61 813a ff93 9138
00000210: c659 2c3a c0dd 58b8 379e 88b9 5979 ccba
00000220: 02b4 b83b d0bb d0b8 21d9 3338 d919 fe37
00000230: 06c8 1037 83b2 7cb8 9089 fe37 69b9 2e38
00000240: a958 573d f1e1 33bd 2d71 40bb c96a 03be
00000250: 19f8 58bc 9d89 bdbc e401 60bc ba65 91bb
00000260: 98cd 14bb 4738 84bc 11bb b4bb eebd abbc
00000270: edf8 01bc 4047 473c 9127 9b3d 16bb 6a3e
00000280: 6161 78b9 4f2f 433d fdc6 febc 6b4c f3bc
00000290: 3c1e 19bb 34ad 8c3c 046d fcbc 1025 11bc
000002a0: beff ec38 f43c 383a 08f9 9fb8 c162 ae39
000002b0: 8d10 3c38 57b9 1a38 9e17 e137 4030 3eb6
000002c0: b406 2338 1a29 a439 11ec be3a 2972 bc38
000002d0: 23ba 803a b060 ddb7 02a9 22b9 daab 6aba
000002e0: dee0 dc3b c01c 9db8 3d17 5f38 20bc d138
000002f0: 9019 9c37 2ca9 e6b8 0428 b238 6092 8937
00000300: 0f4d 9d38 908b 373a 76c9 67b8 d721 aa39
00000310: 72db 2438 94e1 3638 1c32 c837 aa61 5737
00000320: f2e8 83b6 7bca 263a fb94 9c3a 59d3 a238
00000330: 7338 963a 831d 2fb7 f1e3 15b9 7ab5 64ba
00000340: 7c3f eb3b 01ba 85b8 bdd0 7a38 eec3 b738
00000350: 1925 d736 bc80 e1b8 e8c7 8838 1420 6b37
00000360: de4f a93b cfe7 9a3c 4b8e e739 4b71 433d
00000370: c789 283c e610 003c fbf5 e93b 3038 2f3b
00000380: e4c7 9e3a c89a c93d f72f 0b3e 07c4 113c
00000390: 086b ebbd d344 26bb c149 05bd 342b 2bbe
000003a0: 60b2 193a c808 aabc 6a5b 4f3c c9b8 6e3c
000003b0: 222a 823a d136 b4bb 045b 013c 5f8a c43a
000003c0: f275 503a cca9 843a 75f3 81b8 76a6 4c39
000003d0: 74f8 1d38 b8e2 9837 d207 9c37 23ed 3437
000003e0: 8f55 8936 74ae 703a 8ddf ab3a abb1 1038
000003f0: 3fdf 003b facc 05b7 8e78 d6b8 8e0e 0639
-2.7879216e-10 -4.862694e-10 -5.3298206e-11 1.7073538e-10 5.5086047e-11 2.4236433e-12 6.037063e-12 -4.9288087e-12
3.6126224e-13 -2.8112088e-10 -6.973949e-10 3.6641967e-11 2.0565233e-10 -8.945403e-12 4.668291e-11 -1.0555189e-09
-0.00044269787 -3.2131093e-11 3.287988e-11 6.28402e-11 4.1796813e-12 -2.4804199e-11 1.9231136e-11 1.04933146e-11
0.0002742898 0.0008307875 -7.6753386e-05 0.00027958793 6.789211e-05 4.8634363e-05 3.153524e-05 1.214864e-05
2.2102064e-05 0.0005328495 0.0011194141 6.9512076e-05 0.0015040445 -1.1468126e-05 -0.000114589864 -0.00031755585
0.010622778 -6.6633685e-05 6.2469706e-05 7.550941e-05 1.1215549e-05 -9.4104624e-05 5.3316835e-05 1.782298e-05
0.0535996 -0.05366306 -0.0030118516 -0.12942848 -0.013105842 -0.023498977 -0.013584808 -0.0044363686
-0.0022585639 -0.01956714 -0.0051993243 -0.021303996 0.001933814 0.012250962 0.076029316 0.23475868
-0.00017540477 0.047585133 -0.03127034 -0.029727487 -0.0024114698 0.017004572 -0.030823978 -0.008689493
0.0007233819 0.0008919826 -4.9739705e-05 0.00013447224 1.0582098e-05 2.188076e-06 1.1535782e-05 -2.731128e-06
4.1958374e-06 0.000543284 0.0012960467 3.8425536e-05 0.0017208632 -9.523583e-06 -4.362167e-05 1.7460821e-05
0.004042696 -3.7288206e-05 3.4533863e-05 4.1701504e-05 2.5008887e-06 -3.0188703e-05 1.5346377e-05 4.8011034e-06
0.00198148 0.0011179295 5.6855068e-05 -0.00016302514 3.5207427e-06 -4.636372e-05 -1.8454602e-05 -1.1070273e-05
-5.9013855e-06 0.00065191794 0.00076580816 -7.714785e-05 0.0024477257 2.3367898e-05 5.173564e-05 0.0019781855
0.007219673 1.5412379e-05 4.7039757e-06 -5.1699666e-05 -3.5358607e-06 0.0001038309 -4.162947e-05 3.266452e-05
-0.00045647885 0.0004461425 -6.469807e-05 0.00062919734 5.1988867e-05 6.0873244e-05 9.866417e-06 3.3141787e-05
7.30198e-06 0.0004247556 0.0009871068 6.941705e-05 0.00065746566 -5.1704934e-05 -0.0002605782 -0.0015600129
0.005636693 -9.953196e-05 4.2879143e-05 3.0291196e-05 8.62964e-06 -6.0247734e-05 3.0343217e-05 4.165751e-05
0.052574787 -0.043916646 -0.0029364333 -0.12833704 -0.013242745 -0.023136908 -0.013672326 -0.0044371756
-0.0022705551 -0.016140116 -0.005515464 -0.020964589 -0.007932884 0.012162983 0.07575906 0.2292293
-0.000236874 0.04765254 -0.031100744 -0.029699525 -0.0023363968 0.017172433 -0.030813701 -0.008858934
0.000113009926 0.00070281257 -7.6280965e-05 0.00033261444 4.4838107e-05 3.6889072e-05 2.6833088e-05 -2.8340291e-06
3.886847e-05 0.0003131114 0.0014566203 8.9858026e-05 0.0009821098 -2.6390277e-05 -0.00015512484 -0.00089519995
0.0067406734 -7.4916985e-05 5.3188985e-05 0.000100009376 1.8608553e-05 -0.00010998765 8.495155e-05 1.6399834e-05
7.500697e-05 0.00070016924 -5.5262317e-05 0.0003245014 3.930502e-05 4.3602267e-05 2.3865192e-05 1.2837738e-05
-3.9312226e-06 0.00063625694 0.0011946255 7.7641285e-05 0.0011460915 -1.0437684e-05 -0.00014294662 -0.0008724552
0.007179199 -6.37658e-05 5.9799047e-05 8.762615e-05 6.411818e-06 -0.00010752815 6.522221e-05 1.401456e-05
0.0051669916 0.018909363 0.0004416577 0.047715466 0.010286755 0.007816529 0.007139919 0.0026736371
0.0012114015 0.09843975 0.13592516 0.008896834 -0.11495024 -0.0025370612 -0.03254104 -0.167157
0.0005863067 -0.02075614 0.012656072 0.014570423 0.000993077 -0.0054996987 0.007895235 0.0014994851
0.00079521455 0.0010121404 -6.196547e-05 0.00019516968 3.7663107e-05 1.8225386e-05 1.860029e-05 1.0784049e-05
4.0928785e-06 0.0009181269 0.0013112888 3.449774e-05 0.0019664315 -7.975143e-06 -0.0001022677 0.00012784658

bias f4 [40]
00000000: f433 b42e ebf8 65b8 97eb 6fbb f835 04b8
00000010: cfc8 a438 789b 7db8 49be 6abb 4469 a4b8
00000020: 316e a4b8 039e 2f3a e829 6ab8 d517 d936
00000030: 6841 8fb6 b6e2 462b d848 b8a4 7562 82b8
00000040: 111f 05aa 04d3 75b8 26ff 0424 a8d3 af24
00000050: 2365 b42c 4c3b 0b3b 38c1 30a0 6064 30ae
00000060: 2dd8 e0af 4ebb 9ab8 73de 5cb8 ae51 6e22
00000070: 813a 8eb7 3639 5dbb 051e c1aa 1c4b d129
00000080: 18a8 fe3a 5700 95b8 c044 d7b6 437f 41b8
00000090: 3623 4d22 4a02 fa36 16dc 899a 89c9 9db8
8.194681e-11 -5.4829678e-05 -0.0036608928 -3.1521515e-05 7.857533e-05 -6.0464692e-05 -0.0035818985 -7.839737e-05
-7.840654e-05 0.0006699266 -5.5828976e-05 6.4698784e-06 -4.2693464e-06 7.0658355e-13 -7.992068e-17 -6.217222e-05
-1.1823551e-13 -5.8609075e-05 2.8839056e-17 7.625271e-17 5.127136e-12 0.002124506 -1.497171e-19 -4.0106918e-11
-4.0898965e-10 -7.3781805e-05 -5.265926e-05 3.2298255e-18 -1.6954962e-05 -0.0033756024 -3.4304517e-13 9.294494e-14
0.0019428758 -7.104937e-05 -6.415503e-06 -4.6133307e-05 2.7801321e-18 7.450847e-06 -5.701744e-23 -7.523882e-05

weight f4 [18, 40]
00000000: f1e0 3aaf 8217 38b7 a866 b9b5 a019 d835
00000010: 1f12 6e36 e58c 9635 62a2 7ab4 e3f0 4536
00000020: 1fd5 b335 5673 1636 5dae 5734 2ae2 abb6
00000030: a466 0336 18da 7fae 94f3 97a7 9658 c435
00000040: a863 1523 b79c c835 3295 d8a7 1a2b 6ba9
00000050: 40be 752c e763 5936 5cae 5425 de02 fbac
00000060: 866a e32a 7d4c c735 0fe4 8136 f0ab 5aa6
00000070: 1ca7 ce35 aa9d 0eb6 8dd0 7a2d e6a3 1cac
00000080: 6763 b336 9771 73b6 e201 9034 b757 03b5
00000090: 8622 4ea2 504b a4b3 22b9 a29e 091a 9636
000000a0: 1c3d 612e 1438 e8b9 f81f ce36 e4af 5937
000000b0: 3789 99ba d6d2 1139 70d7 4936 f0aa e9b7
000000c0: 498d a0b8 db3d 3936 b7e3 6038 1413 f339
000000d0: d9a9 0535 b974 802f c948 bca9 d611 acb7
000000e0: e7fb 7126 0822 23b5 b68c 9fa7 37fc cb2a
000000f0: 6402 88ae 9877 3d35 fe5f dea6 2ac3 e92e
00000100: 114f 5a2d 0647 5cba 0ef1 9e36 1757 60a6
00000110: 130c 5e39 988e 26b7 e3ae eb2a df85 742e
00000120: a27c e634 4ac6 dbba 73bb d739 890d 2b3b
00000130: d230 a6a3 8055 52ba a888 a6a1 2a17 86ba
00000140: 871e 5eb3 3c6f 713a 5691 0fbd 4ecc 233a
00000150: 28c3 a338 57c0 bd3a 85e5 0ebd 9f6f df3a
00000160: 875b d139 4144 1b3d 7516 803a 8ebc ee39
00000170: 1dde 393b c0fd e82f 1c00 f92d 3f67 523a
00000180: 5e00 40ac 701a fb3a f4e3 55ad 3dd6 592f
00000190: 5f5f 2030 d318 243d df5d d52b 701d 4fb1
000001a0: a39c 93b5 9808 1e3b 3192 a939 e650 f62c
000001b0: d80b 303a e41f 10bd f767 1c2c 00b3 aeb1
000001c0: 4481 1b3d 593f 223a 0756 573a b66a d13a
000001d0: d4ae a428 10fa f738 145e 2325 2fad e13a
000001e0: de44 69b1 4e29 f039 8809 183e 761f 293b
000001f0: c2bb 4c3b 7d54 633a 6e9e 143e 119e 053b
00000200: 653c 473a d05d c7bd fc2f f93a a282 8539
00000210: ed1f 163b c5a8 d932 03a1 86ad 5481 7d3a
00000220: 221f 962a b4c5 2b3b c29c 7fae 20f2 092d
00000230: 7549 0a31 c5e4 f8bd 39b1 0bab 0284 2d36
00000240: 5927 3d35 c57a 813a d171 143b 396b 992b
00000250: 7351 003b faf7 133e dc5c 962e 2924 9ab1
00000260: 3c1a ebbd 71e1 e13a 079a 8c3a 65bd ce3a
00000270: 35f0 1c28 98f9 f73a a22f aea3 b1c6 ce3a
00000280: 6f90 4a38 e56b 1c3b 81ec 0ebe 29f1 493b
00000290: b043 bf3a c97f 003b 6973 14be 42c9 463b
000002a0: 1953 1b3b 412d 1b3e 908d 403b ab06 083b
000002b0: 906a 933b a755 11b4 f77c 83ad 9bb5 5a3b
000002c0: 07ec 88ad 0089 633b a110 6930 c41e 75ae
000002d0: f5ff d9b0 4f89 453e 7f28 e6aa e964 ee37
000002e0: 19bb 4935 7571 123b b3e6 333b 47d8 28ac
000002f0: 4d1c 073b 06ca 10be 0d4b f6ad db92 c8b2
00000300: ee33 2a3e 1ad0 f33a c950 ec3a 7a72 003b
00000310: 37a2 022b 2c51 d33a 526d 69a4 59cc 1e3b
00000320: 7a93 f61e 9806 77a9 91bd 9da6 6d52 3ca7
00000330: 57ee 69a8 3a42 75a7 4e7d 25a7 23ee 60a7
00000340: d34e b5a7 0064 e626 0de8 04a7 e542 1f29
00000350: 459f a2a7 0bb2 bf1e 06d4 7a18 7026 1aa7
00000360: cf10 a917 95bb 03a7 9cab 2f95 e20c 8199
00000370: b820 c89c 5a91 57a7 9abe 1a16 7371 a89e
00000380: 45cf a51f a4e9 d2a7 5b76 dfa6 7e58 9716
00000390: b7df 91a7 08fb eda6 e064 8996 0d18 1c9e
000003a0: ac43 8026 d904 30a8 419b 1fa8 a017 8ea9
000003b0: 4694 a812 1a06 2fa8 3ce9 0c90 9ca3 6aa8
000003c0: 0aaf b5b2 b95b 0e3b 5a4f 93bd b201 a33a
000003d0: 6258 013a e6d0 f43a 8581 92bd a56a fa3a
000003e0: 80a2 e23a 7539 a63d b691 bd3a f4d8 4fb9
000003f0: 3598 463b 1250 5db3 c8b9 652e ab28 cf3a
-1.6996517e-10 -1.0972728e-05 -1.3813451e-06 1.6100712e-06 3.5475312e-06 1.1216877e-06 -2.3342139e-07 2.9495502e-06
1.3398566e-06 2.2418876e-06 2.0086868e-07 -5.122526e-06 1.9580266e-06 -5.8173993e-11 -4.2175007e-15 1.462892e-06
8.098409e-18 1.4946771e-06 -6.01138e-15 -5.2217867e-14 3.4922204e-12 3.239367e-06 1.8447144e-16 -7.1341674e-12
4.0397216e-13 1.4848916e-06 3.871049e-06 -7.586696e-16 1.5396831e-06 -2.1251421e-06 1.4257162e-11 -2.2259915e-12
5.3461877e-06 -3.627594e-06 2.682346e-07 -4.8928945e-07 -2.7936482e-18 -7.6505444e-08 -1.7228986e-20 4.4733792e-06
5.1213353e-11 -0.0004429227 6.143e-06 1.2975161e-05 -0.0011713867 0.0001390682 3.0076735e-06 -2.7855363e-05
-7.655711e-05 2.7603153e-06 5.3617838e-05 0.00046362786 4.979352e-07 2.3366e-10 -8.3615034e-14 -2.0512303e-05
8.3955063e-16 -6.0771754e-07 -4.4283924e-15 3.6235053e-13 -6.1849886e-11 7.058202e-07 -1.5430363e-15 1.06302814e-10
1.2409422e-11 -0.00084029173 4.7368294e-06 -7.783364e-16 0.00021176068 -9.927571e-06 4.1865738e-13 5.5598078e-11
4.293152e-07 -0.0016767469 0.00041147656 0.0026100597 -1.8018432e-17 -0.0008023605 -1.128477e-18 -0.0010230292
-5.1716167e-08 0.00092099956 -0.035050713 0.00062484003 7.808796e-05 0.0014476877 -0.034886856 0.0017046815
0.0003993178 0.03790689 0.0009772318 0.00045535382 0.002836115 4.2380854e-10 2.8308071e-11 0.0008026249
-2.7285045e-12 0.0019157659 -1.2158264e-11 1.9812148e-10 5.834319e-10 0.040062737 1.5160615e-12 -3.0139198e-09
-1.0997941e-06 0.002411401 0.00032343113 7.000722e-12 0.0006715632 -0.035186663 2.2226645e-12 -5.0844164e-09
0.037965074 0.0006189249 0.0008214418 0.0015977237 1.8283477e-14 0.000118244556 1.4169871e-16 0.001721775
-3.394511e-09 0.00045807142 0.14847386 0.0025806106 0.0031239842 0.00086719525 0.14513561 0.0020388404
0.0007600247 -0.0973469 0.0019011493 0.00025465066 0.0022907213 2.5338872e-08 -1.530554e-11 0.00096704555
2.6666955e-13 0.002621037 -5.8119516e-11 7.841311e-12 2.0123399e-09 -0.12153009 -4.9628666e-13 2.5855848e-06
7.0465245e-07 0.0009878507 0.0022650848 1.0901064e-12 0.0019579798 0.14450064 6.8377054e-11 -4.486101e-09
-0.11479613 0.0017233324 0.0010727056 0.0015772997 8.711826e-15 0.0018918989 -1.8885291e-17 0.0015775767
4.8295067e-05 0.002386802 -0.13957407 0.0030813909 0.0014592316 0.0019607416 -0.1449715 0.0030332361
0.0023700653 0.15153982 0.0029381253 0.0020755928 0.004498787 -1.3535337e-07 -1.4948471e-11 0.0033372405
-1.5566227e-11 0.003471911 8.478854e-10 -5.5733876e-11 -1.5861575e-09 0.1929066 -4.0884307e-13 2.84188e-05
7.51506e-07 0.0022345458 0.002745074 -2.3994294e-12 0.0020616234 -0.14139566 -2.8000291e-11 -2.3349847e-08
0.16621372 0.0018601448 0.0018029447 0.0019599483 4.6410396e-13 0.0016122214 -5.061642e-17 0.0024230687
2.6107258e-20 -5.4850737e-14 -1.0945446e-15 -2.6134924e-15 -1.298578e-14 -3.4036482e-15 -2.2966278e-15 -3.1215339e-15
-5.0323053e-15 1.5986561e-15 -1.8444475e-15 3.5363114e-14 -4.5136713e-15 2.0296548e-20 3.2418787e-24 -2.139263e-15
1.0925612e-24 -1.828159e-15 -3.5476344e-26 -1.334349e-23 -1.3243347e-21 -2.991604e-15 1.2500164e-25 -1.7834613e-20
7.022312e-20 -5.8540022e-15 -1.5505814e-15 2.4451212e-25 -4.0488137e-15 -1.6513221e-15 -2.2197205e-25 -8.263545e-21
8.900127e-16 -9.771014e-15 -8.859938e-15 -6.310165e-14 1.0638843e-27 -9.7157745e-15 -2.778981e-29 -1.30250865e-14
-2.1150772e-08 0.0021722151 -0.071928695 0.0012436418 0.00049341295 0.0018677979 -0.0715361 0.0019105269
0.001729086 0.08116428 0.0014462981 -0.0001982188 0.0030303125 -5.1528396e-08 5.223358e-11 0.0015804967

bias f4 [18]
00000000: d2f9 7135 ea36 6d36 2a62 8b3a b83e 21bb
00000010: 3e54 263c 8f10 28a6 fd86 f43a 22ec 1238
00000020: 9f47 1437 c271 69ba 97e9 08bb 0293 f63a
00000030: 5579 bd3a faf8 023b c170 0580 0854 15b9
00000040: 6c0d 5d33 48e9 e438
9.014303e-07 3.5347716e-06 0.0010634114 -0.0024604034 0.010151921 -5.830915e-16 0.0018655952 3.502903e-05
8.838163e-06 -0.0008905196 -0.0020891184 0.0018812122 0.0014455715 0.0019984827 -4.99626e-40 -0.00014241051
5.146778e-08 0.00010915339

weight f4 [1, 18]
00000000: 0df8 8239 d823 0abb 01f8 9e3d 1dd2 8abe
00000010: ebea d13e 5c3d 692f 0722 1b3e 92ff d2bb
00000020: c713 21bb 52e2 a0bd 0e58 96be d127 1c3e
00000030: 6fe9 fc3d 48b7 213e e485 0380 109d 8a3c
00000040: 8d70 08b7 4c46 1fbb
0.00024980344 -0.0021078493 0.07762147 -0.2711343 0.4099954 2.1213026e-10 0.15149699 -0.0064391578
-0.0024578439 -0.07855667 -0.29364055 0.15249564 0.123492114 0.15792572 -3.23537e-40 0.016920596
-8.132437e-06 -0.0024303375
