models/model5.pth (torch, 10750 bytes, 5 tensors)

weight f4 [40, 24]
000000 ec e5 1a 33 3e 55 3c 33 00 3c 5f 2d d1 7a 40 32
       3.6065032e-08 4.384969e-08 1.2689405e-11 1.1203796e-08
000010 42 48 47 b0 a0 fb 8b 31 b2 93 30 32 30 b2 7f b0
       -7.2498463e-10 4.074039e-09 1.027813e-08 -9.302168e-10
000020 a6 d8 27 b2 9a 7f 89 b3 42 ec 1d b2 8c fa c1 b1
       -9.7699395e-09 -6.40277e-08 -9.192322e-09 -5.645523e-09
000030 95 50 31 b4 85 33 09 30 f6 1e b1 b2 62 6b 03 b4
       -1.6513725e-07 4.9913523e-10 -2.0619591e-08 -1.2239391e-07
000040 41 37 68 b5 be 7a 3e b2 31 f4 b2 b1 d3 0c 04 32
       -8.650714e-07 -1.1087364e-08 -5.208243e-09 7.686327e-09
000050 77 66 39 b0 33 31 d4 b1 91 ab 8a b1 fb ca 18 32
       -6.744822e-10 -6.1756054e-09 -4.0358334e-09 8.893717e-09
000060 4f 70 84 2b 50 cd 37 2b 1f 21 8e 28 ae 90 27 ab
       9.410336e-13 6.529959e-13 1.5779531e-14 -5.95311e-13
000070 96 72 5b a9 3d 56 41 a9 e6 7e a7 a9 83 3f ad a8
       -4.8727156e-14 -4.292941e-14 -7.438303e-14 -1.9234402e-14
000080 b2 77 c6 a8 ef 86 14 2b 90 6f ee 29 ce c4 30 aa
       -2.2034325e-14 5.276742e-13 1.0588676e-13 -1.570022e-13
000090 1c 87 20 2b 73 8e 99 28 47 c0 f0 2a 9d 72 ff 2b
       5.703092e-13 1.704819e-14 4.2765983e-13 1.8150651e-12
0000a0 68 42 b8 b8 d2 89 a4 2a 90 6e e6 a9 05 12 92 a9
       -8.786173e-05 2.9227884e-13 -1.02332314e-13 -6.4868284e-14
0000b0 9e 2a 9c a7 b7 87 c3 29 10 44 71 a9 ff d0 ae a8
       -4.3344904e-15 8.6832824e-14 -5.3571785e-14 -1.9408518e-14
0000c0 da 68 89 3a 9f 64 68 3a af cd a6 b6 3c cc 23 b9
       0.0010483519 0.00088650914 -4.9711302e-06 -0.00015620975
0000d0 2a 80 44 b6 83 e1 71 b7 fb b6 13 b6 e3 e5 a9 b6
       -2.9280877e-06 -1.4417225e-05 -2.2011216e-06 -5.063355e-06
0000e0 19 38 df 36 7b 28 53 3a 84 f1 6c 3a 16 c7 55 b7
       6.6524485e-06 0.0008055043 0.0009038674 -1.2742143e-05
0000f0 4c a2 94 3a 02 15 a4 37 16 d7 8a 38 7f 84 30 3a
       0.0011339872 1.9560106e-05 6.620416e-05 0.00067336106
000100 7f eb a6 3b 4c c4 2b 38 e1 91 e2 b6 3c 12 16 b8
       0.0050939913 4.0952393e-05 -6.7523074e-06 -3.577977e-05
000110 38 7b 4d b5 75 71 26 b7 78 ee 9c 35 1d 4b b1 37
       -7.654776e-07 -9.920787e-06 1.1692309e-06 2.1135022e-05
000120 1e 13 d1 ba 2e 73 78 ba c6 5d ed 36 ce 55 07 3a
       -0.0015951132 -0.00094776123 7.074067e-06 0.0005162627
000130 c0 f3 9d 38 13 a8 b0 38 c2 da 07 b7 0a bf a0 36
       7.531745e-05 8.42364e-05 -8.097561e-06 4.7906115e-06
000140 b4 86 7a 37 81 a0 48 bb 7f 3c fe ba 68 8c 9d 38
       1.4932524e-05 -0.0030613246 -0.0019396691 7.512496e-05
000150 92 85 7f ba 38 5d 9a b6 64 c9 cd b9 0e e0 90 ba
       -0.00097473816 -4.6004097e-06 -0.00039250695 -0.0011053102
000160 70 f6 37 3a 18 b8 4f b9 cd 33 ec 38 00 3c e5 38
       0.0007017618 -0.00019809639 0.000112630056 0.00010930747
000170 91 83 ac 35 d4 67 9e b8 1e 21 7b 37 a0 74 4e b6
       1.285329e-06 -7.5533666e-05 1.49684765e-05 -3.0764277e-06
000180 22 5d f1 3b 6c aa 7c 3d fe 67 e9 3a 6a f0 d4 3d
       0.0073658386 0.061685964 0.0017807481 0.10397418
000190 cf f9 3b 3c ed 35 9c 3c 6a ae 37 3c fa bc 84 3b
       0.011473133 0.019068683 0.011211017 0.004050848
0001a0 ff ee 14 3b 93 01 94 3d 61 3e 2d 3d 2d 70 6d 3c
       0.002272546 0.07226863 0.042295817 0.014492077
0001b0 91 39 1a bd 4e 93 e6 bb 49 99 84 bd bb 89 51 be
       -0.037652556 -0.007036603 -0.06474549 -0.20462696
0001c0 34 00 55 39 b6 4f 2a bd 3b bc d4 3c 40 77 ca 3c
       0.00020313339 -0.041579925 0.025968662 0.024715066
0001d0 b1 e1 21 3b 65 63 44 bc cc 4c bd 3c 6f 94 cc 3b
       0.0024701173 -0.011986588 0.023107909 0.0062432806
0001e0 ff db 01 20 f5 6b c6 9f 65 10 fa 9c aa 5a 1f 1e
       1.0999516e-19 -8.403486e-20 -1.654785e-21 8.436139e-21
0001f0 08 6a 07 9d 2e 17 b2 1d e2 83 89 1c 32 d8 34 9b
       -1.7921918e-21 4.7140175e-21 9.09999e-22 -1.4959107e-22
000200 a8 19 e3 9a 53 1f 09 a0 68 17 11 a0 32 7a 4b 1d
       -9.392645e-23 -1.1614716e-19 -1.2289722e-19 2.693e-21
000210 08 91 df 9f 69 33 35 9c ca fc ae 9d f5 94 c7 9f
       -9.468411e-20 -5.995432e-22 -4.6318794e-21 -8.452621e-20
000220 60 f0 0c a9 c0 29 4d 9e 33 f9 d4 1d 5a 5c 3b 1c
       -3.1294737e-14 -1.0861243e-20 5.63736e-21 6.199247e-22
000230 69 4e 3e 1b ce d0 a4 9d dc e8 c2 1c ff 02 ad 1d
       1.5741767e-22 -4.3626338e-21 1.2898036e-21 4.5795817e-21
000240 5d 44 1f 27 be 0a 22 27 60 a7 00 a5 0e 6e 3d a6
       2.2102742e-15 2.248784e-15 -1.1158939e-16 -6.57217e-16
000250 32 b3 25 a5 9f c8 0f a5 c1 e0 8d a4 1e e9 8e a3
       -1.4372182e-16 -1.2471246e-16 -6.152975e-17 -1.54944e-17
000260 02 ac af a4 71 af 1b 27 09 82 51 26 57 ee fd a4
       -7.6185545e-17 2.1605678e-15 7.268767e-16 -1.1012502e-16
000270 4c 46 16 27 a2 87 67 24 0d 80 0d 26 12 ef 46 27
       2.085479e-15 5.0205026e-17 4.9092743e-16 2.760762e-15
000280 03 e5 4b b3 c5 f9 b6 25 c2 6c 1c a5 62 85 f8 a4
       -4.7472906e-08 3.1741218e-16 -1.3567692e-16 -1.07778815e-16
000290 90 88 9c a3 97 b3 00 25 88 d0 4c a5 a0 8b 90 a4
       -1.697139e-17 1.1163078e-16 -1.7764833e-16 -6.268658e-17
0002a0 1a f1 b0 3b c8 a4 31 3b b0 f3 ed b8 10 dd 03 bb
       0.0053998353 0.0027106274 -0.00011346431 -0.0020120777
0002b0 e6 de 8f b9 f7 79 13 ba 53 a0 63 b9 55 e0 99 b7
       -0.00027441158 -0.0005625779 -0.00021708132 -1.8343484e-05
0002c0 33 fa 1a b8 4f 94 64 3b c3 c6 31 3b 15 3f 0a ba
       -3.6949477e-05 0.0034878438 0.0027126528 -0.0005273682
0002d0 0e a8 9f 3b 6e 13 32 39 0f 52 a5 3a 18 53 c8 3b
       0.0048723286 0.00016982641 0.0012612956 0.006113421
0002e0 d6 ea 4f 3a bd 40 6e 3a be 53 29 ba bf 99 1d ba
       0.00079314166 0.0009088626 -0.0006459317 -0.00060119847
0002f0 39 d1 83 b8 ee a1 dd 39 55 b8 20 ba e2 9a e5 b8
       -6.2855375e-05 0.00042273052 -0.0006130983 -0.0001094842
000300 e2 1a 85 b9 88 61 52 39 cc c9 83 b8 82 80 4b 3a
       -0.00025387766 0.00020063494 -6.2841544e-05 0.00077629846
000310 69 3f d5 38 ba b7 92 38 f7 ac 8a 38 d2 05 c9 37
       0.000101684425 6.996044e-05 6.61257e-05 2.3963777e-05
000320 aa 94 d7 37 f1 65 96 39 ca 9a 89 3a 21 b2 d7 38
       2.5699224e-05 0.00028686182 0.0010498401 0.00010285178
000330 5a 10 0e ba 3c 35 b9 b7 f4 d0 fc b9 92 6b db ba
       -0.00054193067 -2.2078508e-05 -0.00048220868 -0.0016740432
000340 80 04 06 3c ac 26 9d b9 41 dd 92 38 8c 7b cf 38
       0.008179784 -0.00029974186 7.003034e-05 9.8935416e-05
000350 e3 46 db 36 8d 97 fc b8 fe 46 b6 38 f8 65 51 38
       6.534961e-06 -0.00012044525 8.6916596e-05 4.992445e-05
000360 a5 b9 e8 39 52 c3 d5 39 3b 08 17 b8 fd 72 0f b7
       0.00044388804 0.0004077205 -3.600887e-05 -8.550237e-06
000370 51 04 7c 37 59 fc cb 35 cd 98 8a 36 78 34 dc b6
       1.50213755e-05 1.5198121e-06 4.130509e-06 -6.562619e-06
000380 6b 6c bd 36 9f 35 bf 39 a2 69 15 3a 6e 4f b2 36
       5.6452604e-06 0.0003647031 0.00056996394 5.31406e-06
000390 84 c2 78 39 4c 2b 4a b5 84 d8 3a b8 8e e9 74 38
       0.00023723586 -7.531387e-07 -4.45475e-05 5.8391648e-05
0003a0 2b a3 f7 3b b6 08 b3 b7 b4 b3 8e 37 6c 06 d8 37
       0.007557293 -2.134252e-05 1.70114e-05 2.5752197e-05
0003b0 62 c1 f6 36 a9 7f a5 b7 ea f5 2f b7 f8 ed 18 b7
       7.353884e-06 -1.972898e-05 -1.0488069e-05 -9.115312e-06
0003c0 a3 89 31 8c 90 3a 12 89 b6 7b 67 88 49 b1 39 89
       -1.3677003e-31 -1.7601647e-33 -6.9659455e-34 -2.2351924e-33
0003d0 40 70 96 87 c4 8b f7 08 e0 b7 8c 09 5a d2 63 88
       -2.2635466e-34 1.48986305e-33 3.387669e-33 -6.8557595e-34
0003e0 66 08 9c 08 e0 f5 5d 0b 19 4c 0c 8b 82 db 17 89
       9.390883e-34 4.2748028e-32 -2.702027e-32 -1.8279176e-33
0003f0 c8 ea 56 0b 12 bb d3 08 f2 db 28 0a b8 47 e5 89
       4.139153e-32 1.2743081e-33 8.130273e-33 -5.519719e-33

bias f4 [40]
000000 b6 ed a7 2e ad ad 78 a9 73 b9 71 b7 02 f7 ba b6
       7.636507e-11 -5.5217702e-14 -1.4407898e-05 -5.5719875e-06
000010 60 fd 16 3b 0d e3 a7 1c fc 93 ba a4 8e 49 10 b9
       0.0023039207 1.1109824e-21 -8.091534e-17 -0.00013760311
000020 42 c5 8e b8 31 8d 23 b8 76 05 da 07 10 22 f9 a8
       -6.80783e-05 -3.8993723e-05 3.2804204e-34 -2.7659326e-14
000030 dc 44 d6 b6 b4 08 a9 30 72 79 51 bb a7 da e4 39
       -6.3857133e-06 1.2298842e-09 -0.0031963256 0.00043650458
000040 33 76 31 ab e0 d4 80 a6 a5 11 1e bb 3d 13 55 bb
       -6.3047066e-13 -8.939484e-16 -0.0024119404 -0.0032512688
000050 a8 e5 23 2e 42 e9 ac b7 00 9e 1b 80 66 e2 f6 af
       3.7265885e-11 -2.0612617e-05 -2.536238e-39 -4.4908005e-10
000060 17 8b 7f 90 a1 91 8d b7 d0 5c 96 af c9 a1 3d b8
       -5.0397034e-29 -1.6876324e-05 -2.7350788e-10 -4.5211786e-05
000070 4a ea b5 b7 a8 cb d7 b7 2f 51 ce 3a bc 18 1f b7
       -2.168598e-05 -2.5724832e-05 0.0015740747 -9.482897e-06
000080 05 8b 74 9f e9 60 e8 b7 30 d4 07 b0 9c e8 b5 82
       -5.1784004e-20 -2.7701682e-05 -4.941425e-10 -2.672907e-37
000090 ba d8 d6 b7 4d c4 03 39 61 86 9a b8 8b 59 16 2a
       -2.561171e-05 0.00012566261 -7.368322e-05 1.3353743e-13

weight f4 [18, 40]
000000 9c c9 93 35 53 0f 4f b1 cc f4 25 3b f4 6e be 39
       1.101103e-06 -3.0131175e-09 0.0025322912 0.0003632229
000010 2c f7 f2 3c 14 30 81 a3 83 32 c1 ac eb 64 a8 39
       0.029658876 -1.400657e-17 -5.490998e-12 0.00032118647
000020 71 85 97 3b 6b b4 84 3b f4 d5 47 11 b4 16 ea b1
       0.0046240618 0.004049828 1.5764261e-28 -6.8128774e-09
000030 97 ed 15 3c e6 ca 11 33 3e 60 dc bc 94 40 f9 3c
       0.009150884 3.394498e-08 -0.02690136 0.030426301
000040 6a d3 fb b1 f5 e5 98 ac 09 b2 bb bc 8e 3d e9 bc
       -7.3290964e-09 -4.34563e-12 -0.022912042 -0.028471734
000050 b8 cd c5 b0 ef 2c 3c 3b 1e 81 3e 00 74 e0 c2 38
       -1.4392105e-09 0.0028713306 5.740119e-39 9.2924485e-05
000060 10 80 2a 1b e7 3c 94 3b 20 a6 7c b5 8a 4f 19 3b
       1.410345e-22 0.0045238617 -9.411906e-07 0.0023393356
000070 0b e7 22 3b a6 17 e9 3a d2 ff 09 3d 46 bb b3 3b
       0.002485695 0.0017783537 0.033691235 0.005484971
000080 5c e2 97 23 06 31 fb 3a 28 4b 31 32 18 bc e6 86
       1.646732e-17 0.001916439 1.03198445e-08 -8.6792763e-35
000090 d8 87 10 3b 16 2e 83 bb 66 04 20 3b e3 dc 56 b2
       0.0022053625 -0.0040032966 0.0024416684 -1.2506663e-08
0000a0 04 ee d5 a3 c3 58 4f 24 cf 51 13 b0 5e 9b ae ad
       -2.319431e-17 4.4961154e-17 -5.3594545e-10 -1.9850507e-11
0000b0 48 59 db ac 10 33 61 95 6d cd 04 9f f9 27 84 af
       -6.2342666e-12 -4.547867e-26 -2.812201e-20 -2.4039062e-10
0000c0 17 01 aa b0 ed c7 d3 31 9a ca 47 04 76 ac 30 a4
       -1.2369438e-09 6.163637e-09 2.3485368e-36 -3.8309997e-17
0000d0 72 41 79 b4 bc 94 85 a2 52 cc 46 2b 01 4b 18 2d
       -2.3213741e-07 -3.62072e-18 7.062728e-13 8.656854e-12
0000e0 34 13 16 26 dc 23 6b 1a cc 49 ed 29 60 87 03 2c
       5.206773e-16 4.8625828e-23 1.0537716e-13 1.8691368e-12
0000f0 e0 cb b7 20 a8 f7 06 b4 92 57 0c 80 3a ca d4 ae
       3.113632e-19 -1.256982e-07 -1.13344e-39 -9.6765665e-11
000100 6b 9a 89 0c 4a c8 6a 32 38 37 ef a3 ab dd 00 b0
       2.120113e-31 1.3666133e-08 -2.5935818e-17 -4.688114e-10
000110 2e 07 7d ae 73 83 6f ae d0 05 05 ad 6f 6a 89 b2
       -5.7531917e-11 -5.445906e-11 -7.561465e-12 -1.59973e-08
000120 92 08 90 91 7a be 97 ad ab 58 bf 23 ca 05 74 02
       -2.2724476e-28 -1.7251301e-11 2.0745814e-17 1.792795e-37
000130 13 ab 43 b1 d8 2b ab b1 00 37 e6 b0 ad 41 eb a4
       -2.847348e-09 -4.9817395e-09 -1.6750334e-09 -1.02026263e-16
000140 be 05 fd 33 85 69 d4 b1 95 e9 fe 3a 80 86 e9 33
       1.1782275e-07 -6.1820082e-09 0.0019448275 1.08743734e-07
000150 e9 c4 91 3c 5b 88 fe a2 e2 4e 03 ad 50 bc ac b9
       0.01779409 -6.899121e-18 -7.464003e-12 -0.000329467
000160 70 fc 7f 3b 7b 91 84 3b 16 20 8c 10 40 f7 bd b1
       0.0039060377 0.004045663 5.52697e-29 -5.528733e-09
000170 a5 e8 4a 3c 80 84 8b b0 8f a6 86 bc 56 56 95 3c
       0.012384568 -1.015124e-09 -0.016436843 0.018229645
000180 ae 14 35 b2 50 86 51 ab 8e 56 65 bc 04 b6 8e bc
       -1.0540289e-08 -7.443811e-13 -0.013997687 -0.017420776
000190 00 69 a5 2f c9 6a 91 3b 60 56 ab 00 00 23 de 38
       3.0087932e-10 0.0044377786 1.5734855e-38 0.00010592304
0001a0 56 96 3d 9b fb 12 90 3b 19 6a a8 b6 64 a4 02 3b
       -1.568229e-22 0.004396794 -5.0191416e-06 0.001993441
0001b0 1a 1e a2 3a f7 dd 85 3a fb 6c a6 3c c9 81 73 3b
       0.001236859 0.0010213245 0.020315638 0.0037156215
0001c0 60 78 a0 22 dc 92 be 39 8f cc ef 31 fd 80 85 05
       4.349554e-18 0.00036349043 6.979071e-09 1.2554643e-35
0001d0 84 e7 81 3a e0 2c 52 bb 08 2b 1c 3b 61 3e 11 b2
       0.0009910916 -0.0032070205 0.002382936 -8.454294e-09
0001e0 12 86 3f 36 62 59 ef b1 87 06 83 ba d3 1f ad ba
       2.8539257e-06 -6.965977e-09 -0.0009996452 -0.0013208337
0001f0 16 21 6c bd 44 8f 72 a2 a6 65 27 2c 84 fa 17 3b
       -0.05764874 -3.287296e-18 2.3788554e-12 0.002319009
000200 ad 34 8a bb 19 e1 f0 ba 53 72 22 92 d2 91 17 b2
       -0.004217705 -0.0018377631 -5.12591e-28 -8.8225125e-09
000210 8c 13 4d 3c 65 e6 30 34 57 76 8a 3d b9 f3 57 bd
       0.012516867 1.6475094e-07 0.06760853 -0.052722666
000220 55 2f 0f b2 b2 d9 45 2c 8f 7e 6c 3d e0 fd 91 3d
       -8.334458e-09 2.811623e-12 0.057737883 0.07128501
000230 fe 2b 78 b2 2b ae 5c bb c8 89 15 82 57 b5 d8 b9
       -1.4445503e-08 -0.0033673148 -1.0986332e-37 -0.0004133384
000240 d2 be 4b 9b dd f6 dd ba 42 24 49 b6 ed 57 0d bb
       -1.6853424e-22 -0.0016934533 -2.9972439e-06 -0.00215673
000250 74 57 07 bb 00 c9 48 bb 5f e7 87 bd 93 cd 69 bb
       -0.0020651491 -0.0030637383 -0.066359274 -0.003567551
000260 34 ed 2e a4 31 ef 3b b9 e7 f2 8e b2 f1 ec 9d 06
       -3.7931154e-17 -0.00017922815 -1.6641435e-08 5.940499e-35
000270 db 3e 3f ba 29 77 50 3b 87 c7 3c bb 16 b2 0a b2
       -0.0007295438 0.0031809306 -0.002880545 -8.073149e-09
000280 d6 91 55 35 10 26 e4 31 50 63 80 3b 05 3c f9 39
       7.95609e-07 6.6400005e-09 0.003918089 0.000475377
000290 5c 45 6b 3c ea 92 35 a4 ae 59 45 ae 4a 3a 22 3a
       0.014359798 -3.937256e-17 -4.4872266e-11 0.00061884953
0002a0 97 f4 99 3b 1c b7 69 3b 85 14 99 91 62 be 24 33
       0.004698347 0.003566212 -2.415179e-28 3.8357378e-08
0002b0 f4 02 d7 3b cc 5f 42 b2 b0 6a 45 bc 40 43 6c 3c
       0.0065616313 -1.1314068e-08 -0.012049362 0.0144203305
0002c0 52 c8 1a b1 a8 9a 2a a8 50 4b 2a bc 2a 4e 4f bc
       -2.2523818e-09 -9.4704314e-15 -0.010393932 -0.012652913
0002d0 88 0d 7d 31 7b b9 73 3b a7 7d 27 00 07 31 d9 33
       3.6824037e-09 0.0037189412 3.62666e-39 1.0113768e-07
0002e0 08 3e 95 1a 17 d3 88 3b 58 39 00 b5 2c 9e 49 3b
       6.172517e-23 0.0041755545 -4.776716e-07 0.0030764444
0002f0 0c 18 6f 3b c0 e2 37 3b 5d f7 81 3c 6d 1e 91 3b
       0.003648284 0.0028058738 0.015865022 0.004428676
000300 5e a8 40 a4 89 38 20 3b 8b 45 bc b1 78 85 e0 84
       -4.1775976e-17 0.002444776 -5.4794262e-09 -5.278472e-36
000310 57 4f 54 3b c9 d3 17 3b 70 d4 2e 3b 0a af d3 b1
       0.0032395923 0.0023167005 0.0026676916 -6.160808e-09
000320 04 4a 5c b5 e7 4d 0e 33 2c 9b 8d 3a 42 08 f9 39
       -8.2064093e-07 3.3132803e-08 0.0010803691 0.00047499134
000330 b0 2b e2 bd 82 b8 34 a3 ee e7 49 2e 1e e6 8c 3a
       -0.11043489 -9.796891e-18 4.5908104e-11 0.0010749733
000340 9b 10 85 3a 3d f2 d2 3a 90 db 4f 8f 33 f6 a0 32
       0.0010152044 0.0016093921 -1.0248174e-29 1.873841e-08
000350 9e b9 ae 39 a8 c6 5b 34 20 2e 20 3e c8 57 b4 bd
       0.00033326162 2.0468235e-07 0.15642595 -0.088058054
000360 85 05 7e 33 df cf 80 ab e2 cf 05 3e 40 10 2a 3e
       5.9144003e-08 -9.152643e-13 0.13067582 0.16607761
000370 1f 07 43 32 67 14 d0 3a bb 47 06 82 01 d4 67 3b
       1.1352113e-08 0.0015875221 -9.865351e-38 0.0035374167
000380 a1 8e b5 1b fb 84 ef 3a 74 c7 be b7 e0 c7 e4 3a
       3.003611e-22 0.0018273884 -2.2742643e-05 0.0017454587
000390 57 d2 a8 3a 17 66 24 38 bf fc 08 be 28 ce a1 3a
       0.0012880069 3.9195726e-05 -0.13377665 0.0012344765
0003a0 6a fd c6 a3 b3 8a 40 3b f6 27 42 3a 44 7a bc 85
       -2.1574528e-17 0.0029379546 0.00074064673 -1.7724348e-35
0003b0 aa a2 ba 3a fa ea f0 3a a5 cd e4 3a 35 06 da 32
       0.0014239151 0.0018380575 0.0017456306 2.5381363e-08
0003c0 ee 72 98 b3 1b 8a 58 32 08 1b 0a 3b a4 8b d7 b9
       -7.098957e-08 1.2604256e-08 0.002107324 -0.00041112036
0003d0 11 a8 83 bd 1b 37 0d 23 b0 20 d8 2d f9 7c 39 3b
       -0.064285405 7.655294e-18 2.4570873e-11 0.002830325
0003e0 2c c8 a2 3a 97 79 2b 3a 95 53 a1 11 0e 91 86 31
       0.0012419275 0.00065412506 2.5452833e-28 3.916404e-09
0003f0 ab 89 2b 3a f1 15 fd b3 77 f2 9b 3d b4 a1 71 bd
       0.00065436465 -1.1785222e-07 0.07614606 -0.058992103

bias f4 [18]
000000 7f c7 f3 39 cf 1d 8d 2b 03 56 a8 39 72 85 41 ba
       0.00046497208 1.0026926e-12 0.0003210754 -0.00073822506
000010 9a b3 b6 39 66 52 43 bb 0c ad 4d ba 77 f8 9c 38
       0.0003484756 -0.0029803752 -0.00078459154 7.48494e-05
000020 0c d1 28 b7 7f fe 38 3b 76 ea 39 3a 3d 4b d5 9a
       -1.0062253e-05 0.0028227863 0.00070921273 -8.821629e-23
000030 15 c9 d7 a6 96 4d a8 37 91 6d 0f bb 89 ec 0c 2c
       -1.4973125e-15 2.006329e-05 -0.0021885375 2.00265e-12
000040 ec 1c 8e 31 e1 d5 ce 3b
       4.136032e-09 0.0063121174

weight f4 [1, 18]
000000 05 78 54 3d 97 d4 b2 b3 fc 53 fb 3c 59 eb 11 be
       0.051872272 -8.327441e-08 0.030679695 -0.14249934
000010 7b 41 d4 3c bd 38 a9 be f8 8b 22 be 30 8a cb 3c
       0.02591013 -0.330511 -0.15873706 0.024846166
000020 c1 7b 18 bc 16 e8 76 3e fd fb 15 3d 59 ec fd a3
       -0.009306849 0.24111971 0.036617268 -2.7530412e-17
000030 d8 c1 b6 a8 76 28 1d bd 75 9f a4 be 55 0a 39 b3
       -2.0290125e-14 -0.038368665 -0.32152906 -4.3083066e-08
000040 e8 cf a8 35 a2 4a be 3e
       1.2577484e-06 0.37166315
