models/model8.pth (torch, 10750 bytes, 5 tensors)

weight f4 [40, 24]
00000000: 150f dcbd 9e86 a3bb cc66 1bbe 8e66 20be
00000010: 1c61 16be f612 053e 60c7 f83d 9ac3 253e
00000020: 01c8 403d 00e2 903d f8c8 d33d ed69 71bd
00000030: b002 c3bd 3753 dabd bdd3 d0bc b726 b6bd
00000040: 3078 80bc 916a 3c3d 76b8 983c f420 b73d
00000050: ce04 27be 31c0 6d3c 98ed 01be 5c03 3f3e
00000060: f4ca ce3d 0ec9 98bd 119d 843d 45dc e4bd
00000070: 71ff 423d 2437 283e 889f 023e 6164 aabd
00000080: 3c6a 2a3e b63e 14bd 88c1 4c3e 6c6e 21be
00000090: ac67 9cbd 36b2 0abd c45f 9f3d 16e4 033e
000000a0: 5764 babb c0c8 d03d 7ab9 aabb 9a0f 33be
000000b0: ea02 4e3e 0c74 013e 01f2 5bbd f811 3b3e
000000c0: 442a 013e 14ed 243e 998d 6a3d cff7 afbd
000000d0: f42a 4a3e 202d c2bd 61b7 3bbd f6d0 273d
000000e0: 4137 853d ea35 03be 7c06 38be 58b9 f53d
000000f0: 9026 bb3d 9ac3 0cbe 000d 2fbe 986c 503e
00000100: 238b eabd c5bd 4bbd 6c8b 973d 30ca 433e
00000110: 9177 5c3d aa85 0f3e 3ada 41be fa2b 15be
00000120: 72d6 52bc c9da 84bc f56b ee3c c297 313d
00000130: a07b 70ba 4580 30be b44c bc3d a042 9b3d
00000140: b80d 32be 7133 09be 8838 383e f596 edbd
00000150: 04a0 fd3d d942 5bbd 5090 ecbd ff2e 483d
00000160: 2ec1 2c3e 61c9 423c da66 b5bd f041 423e
00000170: ad09 45be aa43 3e3e b9f6 b4ba 28f6 af3d
00000180: 40b3 903d 74c6 2e3e fc8a 073e 61c4 38bd
00000190: 9124 54bd 2aa1 123e 2e3d 9cbd 6483 a1bd
000001a0: 345a 333e d7c4 abbd 2ace 3a3e 0e68 a6bc
000001b0: ba95 193e 444a fb3c 6014 063e 3999 533d
000001c0: 7070 3d3d 605a f43d 4814 ba3d a1f2 30be
000001d0: 499b 623d 749d 4f3e ec07 203e 593e 79bd
000001e0: a4c8 273e fc07 103e 109b 9e3d 097b 413d
000001f0: 7140 7b3d 7e40 1a3e b5c4 313c f654 2abe
00000200: 27cf c13a d29f 333e 1412 d03d 1c2f 8c3d
00000210: 8562 2c3b 9f89 eebd 3936 f3ba 39bb 9dbd
00000220: 2a8b 073e 07b2 4dbe a240 193e 84fd 1ebe
00000230: 58c3 c8bd 48d8 a43d f691 c5bb a556 45be
00000240: a0d1 dd3d 70a0 3f3d 60ce 503e 1018 a73d
00000250: 8622 963a 40e1 02be 3c64 d53d c967 683d
00000260: ddb6 803d 78c0 d2bd 3f7d 47bd 4cce b43d
00000270: 8a63 bdbd bc6e 083e da0a 023d 4e05 2bbe
00000280: aaa6 373e c461 12be 98a1 193e c846 da3d
00000290: 90de 4a3e 98c0 2dbe edae 3ebd b43f b83d
000002a0: 190c 0f3d 6e4f 4cbe 24a9 923d 6093 e33d
000002b0: 6c65 aa3d d2dc 4f3e f8be a33d d8de 203e
000002c0: 1dab 31bd a2d8 4cbe ece0 303e 153a c63c
000002d0: 5e87 503e e642 9dbd d018 393e 7246 e53c
000002e0: 2610 3e3e 1a8e 0cbd 672d a2bd e164 2d3d
000002f0: 7905 3abe a62f d33a 58bd 16be dfe0 9cbc
00000300: 492a a9bd 8ac7 97bd 618e 3d3d 304f 1e3e
00000310: 4105 423d 9877 50be 76ab 20be 4202 9ebd
00000320: 8967 e9bd 8cdc 2f3e 440b 0abe 4cd4 8d3d
00000330: 3dbd b3bd 2838 00be c62d 0a3d 260d dfbd
00000340: cd25 f0bd bd1e 58bd ee76 0ebe e0dd 00be
00000350: a6c2 14bd d4f6 2f3e 9c94 0cbe 0825 0f3e
00000360: 0a5b 0cbe cf21 303d 63b6 20be 0550 1fbd
00000370: 0689 213d eeec 1abd 62f7 323e 4ca0 033e
00000380: 8866 4e3e 7058 a43d c4fd 10be ccdf f4bd
00000390: 3b87 36be aae0 abbd 10b4 85bc 9ccf 333e
000003a0: 982e 393e 5034 98bd 5ae7 c73b 55de 6ebd
000003b0: 2e34 c5bb a91f f5bd 8eeb 343e c8f9 9abd
000003c0: 4497 37be 84a0 933d 020c 44be eb67 0cbe
000003d0: 9d02 7abd d89f 8abd b87a 1f3c 5ddf 2c3d
000003e0: ff49 03be 4960 803d 5403 e13d deab a1bb
000003f0: 5959 41bd 91db 763d 84a8 9f3d 64ab 4fbe
-0.10745064 -0.004990413 -0.15175933 -0.15664122 -0.14685482 0.12995514 0.12147403 0.16187897
0.04706574 0.07074356 0.10341066 -0.05893891 -0.09521997 -0.10660403 -0.02549159 -0.08894103
-0.01568231 0.046000067 0.018642645 0.08941832 -0.16310427 0.014511154 -0.12688291 0.18653625
0.10097304 -0.07460223 0.064752705 -0.111748256 0.04760689 0.16427284 0.12756169 -0.08319927
0.16642088 -0.03619262 0.19995701 -0.15764779 -0.07636961 -0.03386136 0.07781938 0.12879977
-0.005688231 0.1019454 -0.005210099 -0.1748642 0.20118299 0.12641925 -0.05369759 0.18268573
0.1261378 0.16106063 0.057263944 -0.085921876 0.19742948 -0.09481263 -0.04582918 0.040970765
0.065046795 -0.12813535 -0.17971224 0.11998242 0.091382146 -0.13746491 -0.17094803 0.20353925
-0.114523195 -0.049741525 0.073996395 0.19120097 0.053824965 0.14015833 -0.18930903 -0.14567557
-0.012868511 -0.016217606 0.029104212 0.04335762 -0.0009173695 -0.17236431 0.091943175 0.07581067
-0.17388046 -0.1339853 0.17990315 -0.116010584 0.12384036 -0.053530548 -0.11550963 0.048872944
0.16870567 0.011888833 -0.08857508 0.18970466 -0.19241972 0.185805 -0.0013806439 0.085918725
0.07065439 0.17067891 0.13236612 -0.045109157 -0.051792685 0.14319292 -0.076288566 -0.07886389
0.17514879 -0.083871536 0.18242708 -0.020313289 0.14998522 0.030675061 0.1309371 0.051659796
0.046249807 0.119313 0.090858996 -0.17280056 0.055323873 0.20274907 0.15628022 -0.060850475
0.16385132 0.14065546 0.077444196 0.047236476 0.061340753 0.15063664 0.010850121 -0.16633973
0.0014786468 0.17541435 0.10159698 0.06844923 0.002630384 -0.11647343 -0.0018555588 -0.077017255
0.1323668 -0.20087443 0.14966062 -0.15526396 -0.09802884 0.08049065 -0.006029363 -0.19271334
0.108309984 0.046783864 0.20391226 0.081588864 0.0011454381 -0.12781239 0.10419509 0.056739602
0.062848784 -0.10290617 -0.04870343 0.088284105 -0.09247501 0.13323492 0.03174863 -0.16701242
0.17934671 -0.14295107 0.1500305 0.10658032 0.19811463 -0.16968 -0.04655354 0.089965254
0.034923647 -0.19952175 0.07161167 0.11112094 0.08320126 0.2029908 0.07995409 0.15710008
-0.043376077 -0.20004514 0.17273301 0.024197618 0.20364138 -0.076787755 0.18075871 0.027987693
0.18560848 -0.034315206 -0.07918816 0.042332534 -0.1816615 0.0016112223 -0.14720666 -0.019150196
-0.082600184 -0.07411106 0.04627836 0.15459895 0.04736829 -0.20358121 -0.15690407 -0.077152744
-0.11396701 0.17173976 -0.1348086 0.06925258 -0.08776329 -0.12521422 0.03373506 -0.1089118
-0.1172596 -0.05276369 -0.13912556 -0.12584639 -0.036318444 0.17184001 -0.13728565 0.1397897
-0.13706604 0.043000992 -0.15694575 -0.038894672 0.039437316 -0.03782361 0.17477182 0.12854117
0.201563 0.080246806 -0.14159304 -0.11956748 -0.17825024 -0.08392461 -0.016321212 0.17559665
0.1808418 -0.07431853 0.0061005773 -0.0583175 -0.006018183 -0.11968929 0.17667982 -0.07567173
-0.17928797 0.0720835 -0.19145206 -0.13711517 -0.06103765 -0.06768769 0.009733848 0.042205203
-0.12821196 0.06268365 0.10986963 -0.0049338182 -0.04720435 0.06026799 0.07795814 -0.20280224

bias f4 [40]
00000000: 4a88 31be 854f d63c 8e43 383e ecbf 0fbe
00000010: ca06 04be 6430 c83d d870 8c3d 8037 14be
00000020: f12b 66ba 0c7f 94bb 76cf b1bb 7802 233e
00000030: 78ab 09be 6bac 83bd fa3f 373e df42 7fbb
00000040: 104d 493e 1549 c6bc 3635 16bd 19d9 6c3d
00000050: af76 4fbe f6ff a2bc 1a43 d5bd b89a b9b9
00000060: 5991 6a3d fc85 4ebe ca05 06be 0fdc 8ebc
00000070: 92c3 41be 7073 de3d dad4 14bc 04e0 193e
00000080: 2a11 e9bd 1073 4a3e b022 73bc 293e 4b3d
00000090: b54e 1fbb ea5a 49be 8207 373e 1529 ad3c
-0.17337146 0.026160965 0.1799452 -0.14038056 -0.12893215 0.09774855 0.06857461 -0.14474297
-0.00087803515 -0.0045317467 -0.0054263426 0.1591891 -0.13444316 -0.064293705 0.17895499 -0.003894977
0.19658303 -0.02420477 -0.03667184 0.057824228 -0.20260118 -0.019897442 -0.10413189 -0.00035401224
0.05726752 -0.20168298 -0.13088146 -0.017438916 -0.1892226 0.10861862 -0.009083951 0.15026861
-0.11380227 0.19770455 -0.014839813 0.049619827 -0.0024308388 -0.19663587 0.17873958 0.021137754

weight f4 [18, 40]
00000000: 820c eb3b f790 063e 46dc 09bd 8108 5a3d
00000010: 7555 3cbc 9047 1cbe ba85 b93d 59b7 1e3e
00000020: bebf b23d 085e 96bd 982c 9c3d 0228 a8bd
00000030: 3c50 f3bc 6d0c 083e 4109 19be 42c2 08bd
00000040: 06da 9d3c e435 f7bd 1d2d 533d 95b0 b4bb
00000050: 8656 92bd 9acc 9ebd a6e2 15bd f439 4fb8
00000060: b951 8dbd 6d44 dcbc a860 82bc 772f 56bd
00000070: 5803 ddbd 9520 073e 74be e93c b381 b9bb
00000080: 5846 b13d 6edd bd3d 3d01 0a3e 6fac 1cbe
00000090: cbf2 5cbd 1257 80bd f511 c53c 1445 fa3c
000000a0: 53ce 183e 2f6f 853c f5b4 823d 7028 37bd
000000b0: 38b6 c93c ea9a e73d cc00 233d d018 08be
000000c0: e476 f3bd 5e03 5cbd df45 62bd d98b 013e
000000d0: 1cfe b7bd 3f56 883c a041 21bc 3050 253c
000000e0: 261f 64bd 9fd9 0fbe 0696 de3d 3c1f acbd
000000f0: 59cd ccbd 9bd2 6abd 3edd 68bb c422 54bd
00000100: 88d4 823c b1ab 21be f58e ce3c c201 18be
00000110: 78c5 8d3d b4b7 eb3c 850a 063e f6ce 0fbe
00000120: 9f73 0b3e 04b7 ab3a 91fc a7bd 4a31 db3d
00000130: c30a 833d e6ff e43d 4372 09be 1ac1 873d
00000140: d84e cfbd 89b5 89bd e13a 30bd 6631 06be
00000150: f5c9 68bd 42ff 213d 8ef2 1bbe ee81 02bd
00000160: 9a05 a63d eba3 033e 936d 6ebd 118c 3c3d
00000170: 0251 213d 0f18 183e 8ef2 94bd ce5e 02bd
00000180: b9cb 1fbe 2eec 9abd 0e35 15be 0d9b d7bc
00000190: 0d1d 0b3e 95b3 053e ed53 f9bd 94d5 a43d
000001a0: 5954 2fbd 0a5a 963d ba6a 1fbe dc28 19be
000001b0: 1167 7b3d 6305 a6bd 545b 17be 7b26 d6bd
000001c0: a2f0 ce3d a5a9 463d 0db0 033e 2905 4a3d
000001d0: 9d65 adbd 65a2 c43c 8dcd 71bd a8e8 993d
000001e0: 77f2 77bd e13e 153e e348 7abd a32b 5dbd
000001f0: d4c8 07be 5589 3e3d 72e3 12bd a5ca 3abd
00000200: 733b 093e 71bf 1abe 113e 103e cd64 78bd
00000210: 49c4 0b3e fcdb 86ba a7fb 173e 8e20 9bbd
00000220: 700b 01be a3be 09be ed3b bb3c 4c6f 1abd
00000230: 2a00 ea3d 2886 0fbd 90c4 c9bd d9d8 133e
00000240: f16d 053e 4e24 a13c 5e7f adbc 097c e2bd
00000250: eae6 dd3d 49b5 d4bd 8c78 0bbe 712a 183e
00000260: 30c0 bfbb 3d84 183e 6602 97bd 0da9 053c
00000270: e045 f13b ba35 113d b6d2 78bb e938 83bd
00000280: e974 0d3e feb8 f03d c50d 04be 8df3 aabd
00000290: cc10 11be 47ab 073e 81a7 fd3b 2fea 083e
000002a0: 6f24 203e f2c1 febd 5c34 e2bc b854 223d
000002b0: c75b 303c a603 22bd 9611 cabd 9e61 25bd
000002c0: e380 003e d82c 00be 0065 90bd 467e ca3d
000002d0: 6f6b d7bd 768c afbd 5436 203d 8651 11be
000002e0: 82cf 0dbe 42d8 983d 320e 17bd c3ee 8cbd
000002f0: 049b 803a 1fe2 1b3e 4123 2fbd c213 d93d
00000300: fe02 14be d840 cd3c 2171 053e 2513 16be
00000310: e8d7 9c3d f38e 123e ffa8 eabb a15f 063e
00000320: e0f4 953d 3407 973d 447f e5bc 9c61 93bb
00000330: a16f 0d3e 9542 14be 124b 12be 88c6 d9bd
00000340: 53a3 053e 1ee2 c3bd feb7 8d3d a1cc 2f3d
00000350: a075 f2bb ea3e ff3d 4865 1bbe bd68 35bd
00000360: f055 a83d 48b1 1ebe 4d2b 0b3e 3d64 04bc
00000370: da7c 0cbe 461d 983d 7447 9dbd 026a 53bc
00000380: e6a3 aebc db04 82bd 1609 e23d c56d 363c
00000390: 5126 07be 1015 b8bd 59ef 183e 73c5 523c
000003a0: 16f8 1a3d bf8f 5dbd 1bf7 a8bb 9cea 8cbd
000003b0: abad ccbb 2598 cebd 0334 4cbd eafb e4bd
000003c0: f904 5fbd 71ff 713d 9d4b 73bd e2ff c4bd
000003d0: c609 bb3d 1da9 c03c 2052 09be 7a3f 18bd
000003e0: 6393 68bd 1e61 c03d 3717 73bd ea5d e63d
000003f0: f5d8 373d c229 95bd fbf2 10be 798d 0dbe
0.007173122 0.13141237 -0.033657335 0.053230766 -0.011494984 -0.15261674 0.090587094 0.15499629
0.08727978 -0.07342154 0.07625693 -0.08210756 -0.029701345 0.1328599 -0.14944936 -0.033388384
0.019269 -0.12070826 0.051556695 -0.0055142143 -0.07145409 -0.077538684 -0.036593102 -4.940662e-05
-0.06900353 -0.026888097 -0.01591523 -0.05229136 -0.107916534 0.13196023 0.028533198 -0.0056612133
0.08655995 0.0927075 0.13477035 -0.15300153 -0.053942483 -0.06266607 0.024056414 0.030550517
0.14922456 0.016288368 0.06382171 -0.0447163 0.024623021 0.113088444 0.03979568 -0.13290715
-0.11887911 -0.05371415 -0.055242416 0.12651004 -0.089840144 0.016642688 -0.009842306 0.010089919
-0.055693768 -0.1404786 0.108684584 -0.08404395 -0.100001045 -0.057329755 -0.0035532261 -0.051790968
0.015970483 -0.15788151 0.025214652 -0.1484442 0.0692243 0.02877412 0.1308995 -0.14043793
0.13618325 0.0013100808 -0.0820247 0.107027605 0.06398537 0.11181621 -0.13422494 0.06628628
-0.1012246 -0.06724078 -0.0430249 -0.13104782 -0.056833226 0.039550073 -0.15229246 -0.03186219
0.08106537 0.12855498 -0.058209967 0.046032015 0.039383896 0.14852928 -0.07272826 -0.031828694
-0.15605058 -0.07564579 -0.1457102 -0.026319051 0.135853 0.13056786 -0.12174211 0.08048549
-0.04280505 0.07341392 -0.15568057 -0.14956993 0.06137759 -0.08106496 -0.14780933 -0.10456558
0.10104491 0.04850163 0.12860127 0.049321327 -0.08466647 0.024003217 -0.05903392 0.07515079
-0.060533967 0.14574768 -0.061104666 -0.053996693 -0.13260204 0.04651769 -0.03586144 -0.045603413
0.13401584 -0.15112092 0.14086176 -0.060643006 0.13649096 -0.0010288949 0.14842092 -0.07574569
-0.1260202 -0.13451628 0.022855723 -0.037703797 0.114258125 -0.03504005 -0.098519444 0.1443819
0.1303022 0.019670632 -0.021178897 -0.11058814 0.10835059 -0.1038614 -0.13620204 0.1485994
-0.005851768 0.14894195 -0.07373504 0.008157981 0.007363066 0.03545163 -0.003796739 -0.06407339
0.13814129 0.117540345 -0.12895878 -0.08347235 -0.14166564 0.13248931 0.0077409153 0.13370584
0.15638898 -0.12439336 -0.027612858 0.039631575 0.010764069 -0.03955426 -0.098666355 -0.040376298
0.12549166 -0.12517107 -0.07050514 0.09887366 -0.10518538 -0.08571713 0.03911431 -0.14191255
-0.13848689 0.07463123 -0.036878772 -0.06881478 0.0009811823 0.15222977 -0.04275823 0.10599472
-0.14454266 0.025055334 0.13031437 -0.1465574 0.07658368 0.14312343 -0.007161259 0.13122417
0.07322097 0.07374421 -0.028014787 -0.00449772 0.13812114 -0.14478524 -0.1428645 -0.1063357
0.13050584 -0.09564613 0.06919859 0.04291976 -0.007399276 0.12463172 -0.15175354 -0.04428934
0.08219516 -0.15497315 0.13590737 -0.008080539 -0.13719502 0.074274585 -0.07679644 -0.012903692
-0.021318387 -0.06348582 0.11036889 0.0111345695 -0.1319821 -0.08988392 0.14935054 0.012864458
0.03783425 -0.054092165 -0.0051564104 -0.06880686 -0.006246289 -0.10087613 -0.04985429 -0.11180861
-0.0544481 0.0590815 -0.059398282 -0.09619118 0.091327235 0.02351814 -0.13410234 -0.03716991
-0.056781184 0.09393524 -0.05934831 0.112483814 0.04488464 -0.07283355 -0.1415519 -0.13823499

bias f4 [18]
00000000: 4d2b 543d 3eee e63d f7d1 38bd 6eb8 cbbd
00000010: 96c7 cc3d 0aef d53d 86dd ee3d 09e3 853d
00000020: 2bcb 21be b1d4 1dbe 0bef 7dbd 6570 03be
00000030: 6216 14be cc60 0abe 8b2c 563c 2e94 8a3c
00000040: 0db9 edbc ff89 7cbc
0.051799107 0.1127591 -0.045122113 -0.099472865 0.099990055 0.10445984 0.11663346 0.06537444
-0.15800159 -0.15413167 -0.061995547 -0.12835844 -0.14461663 -0.13513488 0.013072143 0.01691636
-0.029018903 -0.01541376

weight f4 [1, 18]
00000000: a45b abbd c318 3abe 370a 32bc 1a04 d3bd
00000010: d2d2 e5bd 1dfc 3b3e 7e13 df3d 8ff7 213e
00000020: f238 a2bd deb3 f83d 4687 d83d de01 933d
00000030: b645 853d 165e 8c3d c657 d1bd 74ef 50bd
00000040: 68f7 54bd 822c 59be
-0.083670884 -0.18173508 -0.010866693 -0.10303517 -0.112218514 0.18357892 0.1089239 0.15817092
-0.07921018 0.12143682 0.10572676 0.071780905 0.06507437 0.06853883 -0.102218196 -0.05100961
-0.051993757 -0.21208385
